Pavia_model/India_ViT.pt (torch, 673942 bytes, 69 tensors)

pos_embedding f4 [1, 104, 64]
-0.028281145 -0.0029073763 -0.078015104 0.002497311 0.06951268 0.0033664093 -0.022530321 -0.0020475425
0.05291943 -0.0028354686 0.02226248 -0.0017342982 0.020111186 0.17613412 0.017559169 -0.0031261002
0.017241951 -0.0023005875 0.018065035 -0.0022881555 -0.006402354 -0.49750412 -0.0020244464 -0.00025460703
-0.0025531205 -0.00247849 -0.0022838817 -0.002759005 0.15937796 -0.0024136386 -0.008970162 -0.0024100174
-0.001820753 -0.004469968 -0.07188646 -0.002486559 -0.0024613168 -0.12156734 0.094349585 -0.0014264885
-0.016482677 0.18933003 -0.0058866907 -0.002684034 0.15633617 0.046118848 0.00021698682 -0.002134505
-0.0015394086 -0.0019046742 -0.0019602533 -0.0022005043 -0.04120544 -0.0014680341 0.003977778 -0.00019580006
-0.1723638 0.022622328 -0.0020029403 0.11022511 -0.0021317822 -0.04493731 -0.0025862723 -0.04162416
-0.103816286 0.02313703 -0.047394853 -0.02122376 -0.02841125 -0.01371984 -0.020785222 -0.019858928
-0.00446644 -0.013865287 -0.03466654 -0.024374088 0.018055502 -0.023349855 -0.019055149 -0.019327937
0.050671943 -0.018596513 0.11804443 -0.034848362 -0.10864709 -0.032751206 -0.017434169 -0.108450286
-0.012865606 -0.02212243 -0.015132193 -0.0154931275 -0.053718857 -0.017549181 -0.24333759 -0.025030699
-0.017377025 0.055462953 -0.05988333 -0.015336662 -0.019683775 0.008281874 -0.07739237 -0.018328352
-0.05955022 -0.012855046 0.015226701 -0.017747879 0.077706456 0.048950605 0.01111095 -0.018316183
-0.020988261 -0.01987137 -0.014859944 -0.010333792 -0.025931828 -0.016388787 -0.020103812 -0.017932085
-0.013138437 -0.017086573 -0.04548693 -0.02775195 -0.018152218 0.26563013 0.014963114 0.018015346
0.04072021 0.018936625 0.015578437 0.004196329 0.004203354 0.006220945 0.0069297045 -0.0038798286
-0.00057895377 0.0032533205 0.07554317 -0.001836087 -0.054521557 0.0012217887 0.00022382676 0.0050390987
-0.05661621 0.0055406936 -0.0056565404 -0.0068492014 0.0010845765 -0.0015061244 0.0050746547 -0.033874664
0.0019070893 -0.0010251792 0.0023586089 0.004967351 -0.06894274 0.0040305527 -0.024939412 0.0048797196
0.0039075213 -0.014970191 -0.060321946 0.003681849 0.0023310445 0.016300261 -0.0028387632 0.0055173337
-0.03989882 0.0027933721 -0.07671567 0.007094186 0.013051919 -0.046421792 0.002748208 0.008147392
-0.00075727387 -0.0010611158 0.0002104503 0.0069116135 0.068753965 0.0062690196 -0.0013094862 0.005451715
0.0052860808 0.0028241957 -0.010208098 -0.07975458 0.0014143751 -0.010818906 0.037419647 0.008106708
0.026424322 0.011049447 -0.0017500096 0.00487183 -0.008136886 0.0058615287 0.0007698944 0.0035249356
-0.015462701 0.0030785857 0.091338396 -0.0017184367 -0.0596456 0.0038718136 0.004821738 0.0035882979
-0.049088337 0.0028859314 0.012391783 -0.0027680015 0.0044782087 0.002535898 0.009198985 -0.02848156
0.0045231427 0.000638693 0.0066656233 0.007165689 -0.062335983 0.005403981 -0.033246186 0.0017432995
0.008959735 0.0017577653 -0.0711981 0.0022384403 0.0068937987 0.030718306 -0.00035115663 0.0063726637
-0.038228683 0.0062829303 -0.08573576 0.00560723 0.0022939066 -0.040962543 -0.007119309 0.002567033
0.0025808455 0.0009079784 0.001957634 0.007519799 0.09247816 0.008126175 0.0004778155 0.0066416445
0.016258474 0.005817883 -0.0067229066 -0.08312756 0.004094031 -0.02444148 0.03259965 -0.0045247898
00000000: dcad e7bc ae89 3ebb 62c6 9fbd eda9 233b
00000010: aa5c 8e3d fa9e 5c3b 8291 b8bc 1030 06bb
00000020: 0bc2 583d 45d3 39bb ce5f b63c 6451 e3ba
00000030: 37c0 a43c 815c 343e 3fd8 8f3c 42df 4cbb
00000040: fe3e 8d3c 74c5 16bb 20fd 933c e1f4 15bb
00000050: d7ca d1bb dcb8 febe 93ac 04bb c77c 85b9
00000060: 4152 27bb 296e 22bb 2dad 15bb 6cd0 34bb
00000070: fa33 233e 232e 1ebb 96f7 12bc 62f1 1dbb
00000080: 55a6 eeba cf78 92bb 3539 93bd 8af5 22bb
00000090: 0b4e 21bb 4cf8 f8bd 5b3a c13d 03f9 baba
000000a0: ae06 87bc bbdf 413e 24e5 c0bb 9ee6 2fbb
000000b0: 9716 203e 1ee7 3c3d f586 6339 0de3 0bbb
000000c0: fbc5 c9ba 43a6 f9ba 9877 00bb 5636 10bb
000000d0: 09c7 28bd 0d6b c0ba 0558 823b ae4f 4db9
000000e0: 2380 30be 7652 b93c c343 03bb b4bd e13d
000000f0: 5fb5 0bbb 2f10 38bd 737e 29bb 187e 2abd
00000100: a29d d4bd de89 bd3c 1b21 42bd 73dd adbc
00000110: b6be e8bc 2ec9 60bc c545 aabc 31af a2bc
00000120: 375b 92bb 3b2b 63bc 80fe 0dbd 2bac c7bc
00000130: 22e9 933c 3248 bfbc 8b19 9cbc 9f55 9ebc
00000140: 628d 4f3d b757 98bc 47c1 f13d 28bd 0ebd
00000150: 5e82 debd 2126 06bd 1ad2 8ebc 2f1b debd
00000160: 43ca 52bc 193a b5bc 05ed 77bc e3d6 7dbc
00000170: 4e08 5cbd 4dc3 8fbc 7d2d 79be 2e0d cdbc
00000180: 435a 8ebc 1f2d 633d 3948 75bd 9f46 7bbc
00000190: de3f a1bc b2b0 073c e47f 9ebd 5725 96bc
000001a0: eeea 73bd f99d 52bc 6a79 793c 0064 91bc
000001b0: 9024 9f3d 6e80 483d b40a 363c d20b 96bc
000001c0: 93ef abbc 49c9 a2bc 1f77 73bc 114f 29bc
000001d0: fc6e d4bc c741 86bc c0b0 a4bc 4fe6 92bc
000001e0: 9942 57bc 24f9 8bbc 8150 3abd 0f58 e3bc
000001f0: f6b3 94bc ac00 883e d927 753c eb94 933c
00000200: 3cca 263d fb20 9b3c b33c 7f3c 5c81 893b
00000210: 4abc 893b 12d9 cb3b 9312 e33b b944 7ebb
00000220: eec4 17ba a935 553b 61b6 9a3d dba8 f0ba
00000230: ff51 5fbd 6d24 a03a 0ab3 6a39 061f a53b
00000240: 66e6 67bd b58e b53b 805a b9bb 446f e0bb
00000250: 5928 8e3a 2669 c5ba 4a49 a63b 29c0 0abd
00000260: 4cf7 f93a 4e5f 86ba e492 1a3b 29c5 a23b
00000270: da31 8dbd ba12 843b bd4d ccbc 0ee6 9f3b
00000280: aa0a 803b 8845 75bc 2514 77bd 2d4b 713b
00000290: 70c4 183b 2088 853c 8b0a 3abb c0ca b43b
000002a0: f26c 23bd 0211 373b 1b1d 9dbd 5876 e83b
000002b0: b7d7 553c c724 3ebd 471b 343b a47c 053c
000002c0: ca83 46ba 2315 8bba 52ac 5c39 d17a e23b
000002d0: e1ce 8c3d 596c cd3b 11a3 abba 4da4 b23b
000002e0: dc36 ad3b 2416 393b de3f 27bc 5f56 a3bd
000002f0: 8e62 b93a c841 31bc 5845 193d ffd1 043c
00000300: d277 d83c bd08 353c 9460 e5ba dfa3 9f3b
00000310: 9350 05bc 1112 c03b bdd2 493a 9b02 673b
00000320: 4557 7dbc 19c2 493b a00f bb3d 2b3d e1ba
00000330: f24e 74bd 41be 7d3b acff 9d3b a629 6b3b
00000340: da10 49bd e521 3d3b e806 4b3c 5c67 35bb
00000350: f0bd 923b 4f31 263b 57b7 163c 2952 e9bc
00000360: df36 943b f66d 273a 4d6b da3b 28ce ea3b
00000370: 0454 7fbd e113 b13b 272d 08bd 6d7f e43a
00000380: dacb 123c d164 e63a 4fd0 91bd ccb2 123b
00000390: 60e5 e13b f5a4 fb3c 721b b8b9 c7d1 d03b
000003a0: ae95 1cbd 0ae1 cd3b 3b96 afbd dbbc b73b
000003b0: 5e55 163b 57c8 27bd 1849 e9bb ab3b 283b
000003c0: 6723 293b 6605 6e3a a64b 003b a568 f63b
000003d0: 3165 bd3d a623 053c 5083 fa39 27a2 d93b
000003e0: 7e30 853c f1a3 be3b d44b dcbb c83e aabd
000003f0: 3927 863b 8039 c8bc 3687 053d b044 94bb

cls_token f4 [1, 1, 64]
-0.016832165 -0.002397856 0.07218283 -0.0044564167 -0.07489803 -0.007125013 0.019932134 -0.002035791
0.0014785491 -0.0028298749 -0.016718829 -0.0017314344 -0.026546013 -0.18220237 -0.021684866 -0.0024341636
-0.082513414 -0.0022934885 0.009840091 -0.0023022133 0.001915294 0.49480113 -0.0020113862 -0.005958109
-0.0024692414 -0.0022991656 -0.0016917452 -0.002806107 -0.17123152 -0.0024835896 -0.00927764 -0.0024831023
-0.0018149036 0.0015522811 0.06959809 -0.0024758447 -0.002455531 0.11963951 -0.100992225 -0.0023263926
0.011726879 -0.19136496 -0.005634396 -0.0026836789 -0.15841514 0.014312304 -0.0024309435 -0.002066113
-0.0015267811 -0.0019080067 -0.0019591919 -0.0022012354 0.058390167 -0.0014707358 -0.00844576 -0.0043959445
0.17295726 -0.026955022 -0.0019748982 -0.06108955 -0.0019560931 0.0081910975 -0.0023217497 0.03859379
00000000: 9ce3 89bc 5925 1dbb 97d4 933d 2207 92bb
00000010: 2364 99bd f178 e9bb b748 a33c e86a 05bb
00000020: e0cb c13a 6c75 39bb edf5 88bc 4cf1 e2ba
00000030: 0677 d9bc 4293 3abe 76a4 b1bc 7d86 1fbb
00000040: cbfc a8bd 5a4e 16bb 5538 213c bbe0 16bb
00000050: 9a0a fb3a 9356 fd3e 76d1 03bb 3e3c c3bb
00000060: ffd2 21bb 99ad 16bb 8dbd ddba aae6 37bb
00000070: 5157 2fbe b8c3 22bb 3e01 18bc 8bbb 22bb
00000080: 0fe2 edba e975 cb3a 7289 8e3d c841 22bb
00000090: f9ec 20bb 8f05 f53d 03d5 cebd 6476 18bb
000000a0: 1822 403c 2df5 43be bda0 b8bb a9e0 2fbb
000000b0: 9437 22be 277e 6a3c 7750 1fbb a067 07bb
000000c0: 461e c8ba 1516 faba c965 00bb 9a42 10bb
000000d0: 872a 6f3d b4c5 c0ba 1660 0abc db0b 90bb
000000e0: b51b 313e c7d0 dcbc 4b6d 01bb 0939 7abd
000000f0: cc31 00bb f433 063c 7f28 18bb 8614 1e3d

patch_to_embedding.weight f4 [64, 1]
0.5984744 -0.13577668 0.09332713 0.050066058 0.064035706 0.048215713 0.006058008 0.06032059
-0.41502202 0.055127237 0.36692253 0.083800234 -0.3019161 0.07952074 0.06447769 0.043188374
-0.6086145 0.063811965 -0.35203272 0.09913518 0.3666343 0.102702916 0.03936469 0.29681325
0.049084887 0.060155496 0.062902935 0.05399445 -0.25709742 0.050287504 0.6197165 0.07159092
0.058444574 -0.14818448 -0.0026783298 0.04704311 0.051182356 0.099205635 0.24034275 0.05274045
0.13192488 0.056807548 -0.38556007 0.047005393 -0.38541666 -0.39720276 -0.15306294 0.053666927
0.067808144 0.05750635 0.06412031 0.01666203 0.36867395 0.04607553 0.06599524 0.05172777
0.06464795 0.051519122 0.1563738 -0.32317036 0.06266096 -0.5599953 0.030440569 -0.096688874
00000000: 9e35 193f 0b09 0bbe 4b22 bf3d 1112 4d3d
00000010: 2725 833d d77d 453d 4182 c63b b912 773d
00000020: c47d d4be 19cd 613d 45dd bb3e 759f ab3d
00000030: bf94 9abe c5db a23d e10c 843d 4be6 303d
00000040: 29ce 1bbf d9af 823d a23d b4be 6307 cb3d
00000050: 7eb7 bb3e e855 d23d df3c 213d e8f7 973e
00000060: 3c0d 493d 9c65 763d 41d3 803d 4929 5d3d
00000070: 46a2 83be 45fa 4d3d bea5 1e3f 439e 923d
00000080: 9463 6f3d acbd 17be eb86 2fbb 47b0 403d
00000090: 97a4 513d 532c cb3d 691c 763e 5f06 583d
000000a0: 5117 073e 08af 683d 2168 c5be ba88 403d
000000b0: 5555 c5be 295e cbbe 88bc 1cbe dad1 5b3d
000000c0: ffde 8a3d c78b 6b3d 8251 833d cf7e 883c
000000d0: d5c2 bc3e b2b9 3c3d 8328 873d 80e0 533d
000000e0: 2566 843d b705 533d 7420 203e 9676 a5be
000000f0: 6454 803d da5b 0fbf 805e f93c d104 c6bd

patch_to_embedding.bias f4 [64]
-0.104367964 0.025806159 0.022094514 -0.010551612 0.005710072 -0.012172866 0.017046407 -0.00975719
0.11752445 -0.012245976 -0.20645607 -0.008179434 0.09245494 -0.015725879 -0.0107894 -0.007995071
0.13961491 -0.008805204 -0.015054827 -0.009170323 -0.057219017 -0.015893439 -0.013253449 -0.020211637
-0.0114896735 -0.009495926 -0.016426504 -0.011089766 0.14450747 -0.010989069 -0.058297295 -0.00994423
-0.012482992 -0.010290906 0.062006906 -0.012063106 -0.009782338 -0.052871164 -0.015744923 -0.011895363
0.010128824 -0.016427565 0.119964845 -0.0123458505 0.087076694 0.07075404 0.046840087 -0.009116599
-0.01197517 -0.010528491 -0.013793732 -0.005927721 -0.19412194 -0.009924273 -0.0107834395 -0.01119238
-0.027527228 -0.009614757 -0.020832373 0.07815027 -0.012441584 0.15744607 -0.022022514 0.012102073
00000000: dfbe d5bd 7067 d33c 8eff b43c abe0 2cbc
00000010: 8e1b bb3b b370 47bc e8a4 8b3c 9fdc 1fbc
00000020: a9b0 f03d 59a3 48bc 3869 53be 0803 06bc
00000030: 0459 bd3d 8fd3 80bc 06c6 30bc c2fd 02bc
00000040: 36f7 0e3e b443 10bc 85a8 76bc 1f3f 16bc
00000050: 7d5e 6abd f532 82bc ff24 59bc e092 a5bc
00000060: 2f3f 3cbc cd94 1bbc e090 86bc dab1 35bc
00000070: c4f9 133e 7f0b 34bc 25c9 6ebd 20ed 22bc
00000080: 7785 4cbc 309b 28bc f4fa 7d3d 55a4 45bc
00000090: 1946 20bc 6f8f 58bd 7ffb 80bc c5e4 42bc
000000a0: 5ef3 253c 1a93 86bc 21b0 f53d 4046 4abc
000000b0: 4455 b23d 7ee7 903d 64db 3f3d ca5d 15bc
000000c0: 8133 44bc b17f 2cbc 1bff 61bc 543d c2bb
000000d0: e7c7 46be 6b99 22bc 06ad 30bc 3f60 37bc
000000e0: c880 e1bc 3787 1dbc a7a8 aabc 400d a03d
000000f0: c9d7 4bbc 8b39 213e 8f68 b4bc c647 463c

transformer.layers.0.0.fn.norm.weight f4 [64]
0.7087587 0.16691343 0.33772355 -8.369898e-06 -9.0179617e-07 2.8929693e-07 -1.0744644e-05 3.14428e-07
0.8447715 -2.3540392e-06 0.53208923 -3.5828277e-06 0.37810397 1.8071702e-05 -1.5217613e-06 0.00013197966
0.83791846 -8.803669e-08 0.6775497 -1.4680697e-08 0.32298422 -1.5369968e-06 -1.6058342e-05 0.33786255
3.6740038e-09 2.9030166e-06 1.6483807e-06 -1.3531503e-06 0.73288935 -1.8151338e-06 0.550244 -7.986207e-06
-1.2875443e-05 0.4163464 0.35601637 1.7993161e-06 1.084776e-05 0.14237475 6.4937176e-06 -1.777187e-07
0.23170371 5.8072957e-05 0.516598 -3.2013202e-06 0.49525532 0.79304856 -2.6684495e-07 -2.5466963e-07
2.4285637e-06 -2.1551604e-07 -1.2958157e-07 -1.2488509e-05 0.59334874 -7.155132e-06 -4.165077e-06 -1.0668083e-06
4.1413773e-06 -6.300405e-06 1.788158e-05 0.93666965 -2.9423396e-07 0.66218233 0.19856533 4.180527e-07
00000000: 3671 353f 5beb 2a3e 1aea ac3e 706c 0cb7
00000010: f612 72b5 ab50 9b34 e543 34b7 a8ce a834
00000020: f242 583f 16fa 1db6 0037 083f 8370 70b6
00000030: d896 c13e af98 9737 523f ccb5 0564 0a39
00000040: d381 563f af0e bdb3 e673 2d3f 6336 7cb2
00000050: 305e a53e cf4a ceb5 07b5 86b7 52fc ac3e
00000060: c279 7c31 72d1 4236 ee3d dd35 e49d b5b5
00000070: a39e 3b3f 869f f3b5 cadc 0c3f 7ffc 05b7
00000080: 9b03 58b7 5b2b d53e c747 b63e 0880 f135
00000090: c6fe 3537 b0ca 113e 9ce4 d936 f2d2 3eb4
000000a0: bd43 6d3e 5d93 7338 c43f 043f 43d6 56b6
000000b0: 1b92 fd3e 3b05 4b3f e442 8fb4 87b9 88b4
000000c0: 68fa 2236 9968 67b4 1c23 0bb4 bd85 51b7
000000d0: b4e5 173f 1e16 f0b6 bdc1 8bb6 412f 8fb5
000000e0: 29f6 8a36 1168 d3b6 6700 9637 95c9 6f3f
000000f0: 35f7 9db4 c884 293f b654 4b3e ba70 e034

transformer.layers.0.0.fn.norm.bias f4 [64]
-0.027238537 0.0071454863 -0.01592292 -1.2361359e-06 3.021308e-07 -1.1255369e-06 5.589153e-06 -9.647428e-08
0.05658544 -9.867257e-07 0.026123155 -7.303242e-07 -0.028734392 -4.725031e-06 -5.0875406e-07 0.00014462406
-0.114464305 -1.8634466e-08 0.07027518 2.8824468e-08 0.019264288 -3.221155e-07 -3.1422733e-06 -0.03120748
-3.1318435e-09 6.662683e-07 8.2893315e-08 -6.412392e-07 -0.058427487 -1.7469903e-07 -0.0059000263 -7.6778946e-07
-4.0329786e-07 0.029732311 -0.052909337 -1.7102521e-06 -6.8654214e-07 0.06284023 -2.1886963e-06 5.031584e-07
-0.048889898 -4.37303e-05 -0.030664664 9.871322e-07 -0.001394361 0.08091549 -2.80989e-07 -1.6112384e-07
1.3606102e-07 2.217528e-07 -4.5220267e-07 -9.677257e-07 0.10466099 -4.0162754e-06 -1.3402934e-07 1.2721447e-06
-2.7467822e-06 -2.9276737e-07 3.332911e-06 0.08250138 -5.4565896e-07 -0.051655516 0.06874147 2.0639838e-07
00000000: 5a23 dfbc af24 ea3b c970 82bc 4ee9 a5b5
00000010: 8a34 a234 2711 97b5 758a bb36 4c2d cfb3
00000020: 22c6 673d a36f 84b5 3a00 d63c 7f0b 44b5
00000030: 6364 ebbc b58b 9eb6 5091 08b5 3aa6 1739
00000040: 436c eabd a011 a0b2 6fec 8f3d ad99 f732
00000050: 24d0 9d3c 38ef acb4 d8df 52b6 d4a6 ffbc
00000060: f937 57b1 9cd9 3235 1503 b233 9f21 2cb5
00000070: a951 6fbd e794 3bb4 0255 c1bb 171a 4eb5
00000080: d684 d8b4 2d91 f33c 76b7 58bd d18b e5b5
00000090: d14a 38b5 61b2 803d 84e1 12b6 c810 0735
000000a0: c640 48bd 0d6b 37b8 7634 fbbc 9b7d 8435
000000b0: fec2 b6ba 05b7 a53d d6da 96b4 6201 2db4
000000c0: 2b18 1234 f21a 6e34 43c6 f2b4 cde2 81b5
000000d0: 8058 d63d 8bc3 86b6 b4e9 0fb4 8fbe aa35
000000e0: 5c55 38b6 a42d 9db4 faaa 5f36 7cf6 a83d
000000f0: 6679 12b5 bc94 53bd 54c8 8c3d 5b9e 5d34

transformer.layers.0.0.fn.fn.to_qkv.weight f4 [192, 64]
5.1962683e-14 7.964711e-13 2.8894584e-14 -5.976264e-06 -3.4196417e-09 -1.7277985e-08 3.3007968e-11 -1.2487161e-06
-2.0399348e-13 -3.200102e-19 2.0944229e-13 5.6017014e-18 4.31493e-14 -4.1021624e-17 7.00387e-14 -2.7065963e-07
-4.9784758e-14 7.4091413e-06 3.249307e-13 3.011826e-07 -4.0184222e-14 4.0077466e-06 9.599934e-16 -1.7329583e-13
4.9830415e-09 -4.003289e-19 1.3815089e-16 4.684745e-19 -1.8434606e-13 2.781406e-16 8.8333956e-14 1.7734378e-17
-6.7160193e-09 -2.7173149e-14 3.8979904e-14 3.1392398e-18 9.186965e-20 1.2465731e-14 -3.3907287e-07 2.1421404e-15
-4.926804e-14 1.5292627e-10 -8.436891e-15 -4.830325e-06 -1.5152488e-14 3.9138655e-14 1.7522305e-18 -2.0424583e-17
-1.8138003e-08 -5.228632e-10 2.010794e-18 3.6639096e-07 1.530979e-13 -1.6333958e-10 -8.6285183e-07 2.3148226e-10
1.1327153e-06 3.539369e-19 -3.7632e-07 -2.3607331e-13 -8.032648e-11 1.02171875e-14 -4.2263647e-14 -2.2949728e-06
-3.6782127e-12 1.8013944e-08 -5.0154184e-13 -2.0980069e-09 -8.779584e-10 -9.35138e-08 -7.855277e-06 6.657201e-11
7.517099e-12 8.541351e-09 7.204951e-12 -3.3227878e-17 5.1626406e-13 2.7368709e-14 -1.800446e-17 1.2106809e-13
-1.1454558e-11 -3.3566627e-18 1.4539301e-11 -3.9398063e-07 2.132293e-12 -9.92477e-08 3.4883545e-08 3.7245693e-12
1.6497203e-06 -4.1333333e-08 -6.649305e-11 -1.1941439e-17 2.7756302e-12 -2.6656784e-11 -2.5006242e-13 -3.8771014e-16
1.1051894e-06 2.2757228e-12 -6.467646e-13 -1.2592102e-06 -5.6637646e-07 -2.1735033e-12 1.245525e-16 1.7138216e-05
-1.7656312e-12 9.454534e-07 8.524867e-13 -8.739295e-10 -1.1474798e-12 3.5503204e-12 1.7420014e-06 -2.604606e-18
-2.3378236e-06 -3.7843645e-17 1.09434115e-08 7.4494476e-17 2.1186015e-12 -5.786996e-16 -1.5353945e-17 7.176856e-15
3.142979e-07 -3.7242893e-07 -5.745791e-07 -7.81665e-12 -1.2405491e-06 7.289045e-12 2.52225e-13 6.455216e-06
2.2960416e-10 7.1256424e-11 -1.7350076e-11 4.097165e-07 1.7574671e-06 6.4999806e-17 1.2499559e-05 1.9746881e-07
-5.101023e-10 3.5725939e-16 -2.2427314e-10 1.7632474e-06 -1.923497e-11 3.534551e-08 1.650769e-08 1.8645021e-13
-1.6905215e-10 4.6508394e-08 1.4518889e-10 -2.1898124e-11 -1.889698e-06 -1.2143774e-15 -1.0414142e-06 -1.0564647e-09
7.131428e-07 2.1994646e-15 -2.5551222e-08 -3.296262e-15 3.4495845e-10 -9.8724584e-08 1.1312433e-09 -6.17337e-15
-3.01019e-08 9.1073586e-11 -8.11579e-11 2.7614016e-07 -3.9533918e-10 -1.3532749e-09 -3.5144132e-10 -3.907681e-08
1.8522461e-06 2.5610318e-09 -6.7058394e-11 5.70922e-07 -5.145475e-11 4.6577026e-10 -6.9145807e-13 4.1493037e-16
-3.9730763e-16 3.6761794e-09 4.3495867e-16 8.2420415e-10 -4.4968956e-10 4.2315108e-16 -6.112016e-09 2.836596e-06
-2.109184e-08 -1.3375708e-08 -3.2133672e-14 2.6460901e-11 -1.6511231e-15 -6.894837e-11 -1.5547842e-09 3.3143556e-07
-5.346282e-14 -2.0576841e-14 1.0905013e-13 -1.7873492e-10 -6.4768846e-12 -1.5596651e-14 -1.1683086e-09 -2.1667706e-08
2.5044634e-13 -8.683599e-10 -1.6524572e-13 5.8368306e-07 2.038666e-14 6.481334e-10 -7.138911e-19 -2.0457362e-16
-3.696005e-15 -1.2484345e-06 -8.597996e-14 -4.3880888e-20 7.410414e-14 -2.2488872e-17 -3.1695234e-14 9.255343e-14
-2.0656283e-07 -1.6750655e-13 -1.3270884e-06 7.730815e-21 1.7868145e-13 -5.494923e-10 5.6090606e-14 7.964236e-09
-1.5488094e-15 -1.0466639e-13 6.738781e-14 4.6281687e-10 3.17616e-15 5.133888e-14 2.0722455e-06 -1.4389351e-05
-7.5507185e-16 -2.3510022e-08 9.2148965e-14 2.0958269e-06 4.747569e-14 3.7279157e-14 -5.2782214e-19 -2.8851144e-16
-3.2084068e-07 3.3135332e-06 -1.5809458e-19 1.8183273e-07 -1.5391245e-13 -5.334553e-14 -8.341529e-10 -3.3017752e-06
4.4228896e-06 1.2358016e-18 2.5452036e-07 1.8633161e-13 -1.0463892e-05 1.6284916e-13 2.6284174e-14 4.44805e-15
00000000: e504 6a29 cb2f 602b 3021 0229 b887 c8b6
00000010: f9fe 6ab1 b16a 94b2 ab2b 112e 8f99 a7b5
00000020: 1ead 65aa 93e6 bca0 a1cf 6b2a 93aa ce22
00000030: c253 4229 c92d 3da4 90b6 9d29 2d4f 91b4
00000040: eb35 60a9 0a9c f836 73eb b62a 39b2 a134
00000050: 41f9 34a9 487a 8636 8159 8a26 1f1d 43aa
00000060: 4c37 ab31 fe4f eca0 f246 1f25 ef44 0a21
00000070: 228e 4faa 4f56 a025 0fe9 c629 1e92 a323
00000080: bbc2 e6b1 04c1 f4a8 c58c 2f29 90a2 6722
00000090: cceb d81f 0a90 6028 d209 b6b4 845b 1a27
000000a0: 2fe2 5da9 eb24 282f 4bfc 17a8 2d14 a2b6
000000b0: 427b 88a8 cc43 3029 b34a 0122 2f62 bca3
000000c0: e4cd 9bb2 3ab9 0fb0 d35e 1422 64b4 c434
000000d0: 775f 2c2a 0198 33af ba9e 67b5 7784 7e2f
000000e0: cd07 9835 6fed d020 0709 cab4 c0e5 84aa
000000f0: caa3 b0ae 760e 3828 ab56 3ea9 5503 1ab6
00000100: 656a 81ac 15bd 9a32 e62b 0dab 872c 10b1
00000110: d454 71b0 c1d1 c8b3 28ca 03b7 b664 922e
00000120: 013e 042d 42bd 1232 6e80 fd2c 8e3c 19a4
00000130: bf50 112b f283 f628 d40f a6a3 804f 082a
00000140: be82 49ad 91ad 77a2 31c7 7f2d 4984 d3b4
00000150: fa0b 162c 0022 d5b3 ddd2 1533 f00b 832c
00000160: f56b dd35 7b86 31b3 4238 92ae da47 5ca3
00000170: 4f51 432c be79 eaad cbc5 8caa eb7f dfa5
00000180: 0556 9435 c723 202c 4d0c 36ab 2202 a9b5
00000190: 1809 18b5 5bf2 18ac 6999 0f25 0ac4 8f37
000001a0: 917d f8ab 10cb 7d35 24f4 6f2b 5239 70b0
000001b0: 517e a1ab e3d4 792c b6ce e935 9e2f 40a2
000001c0: 81e3 1cb6 e485 2ea4 a201 3c32 c7c5 ab24
000001d0: 5515 152c 7ecc 26a6 7a9d 8da3 6849 0128
000001e0: c6bc a834 3ef2 c7b4 c63c 1ab5 1083 09ad
000001f0: f180 a6b5 f13a 002d 74fd 8d2a e299 d836
00000200: d373 7c2f cdb1 9c2e e69c 98ad 02f7 db34
00000210: 1ce2 eb35 1de1 9524 32b5 5137 d007 5434
00000220: 4237 0cb0 2ef2 cd25 4797 76af b8a8 ec35
00000230: 4d31 a9ad cdce 1733 cbcc 8d32 9dec 512a
00000240: f3df 39af 85c0 4733 0aa3 1f2f 319e c0ad
00000250: 87a1 fdb5 9e02 afa6 b8c6 8bb5 0c33 91b0
00000260: cd6e 3f35 f67c 1e27 bb7b dbb2 4d85 6da7
00000270: 96a4 bd2f 6a02 d4b3 167a 9b30 4a6b dea7
00000280: 6449 01b3 df45 c82e d677 b2ae 6a40 9434
00000290: 0b57 d9af 21fe b9b0 f834 c1af 68d5 27b3
000002a0: b19a f835 26fe 2f31 8576 93ae 7641 1935
000002b0: e64c 62ae ab07 0030 cea0 42ab ea30 ef25
000002c0: 4208 e5a5 08a0 7c31 92bc fa25 368e 6230
000002d0: 2e38 f7af 14ee f325 dc01 d2b1 595c 3e36
000002e0: 722d b5b2 fcca 65b2 9ab7 10a9 a7c0 e82d
000002f0: b1f3 eda6 7b9e 97ae 1bb0 d5b0 28f0 b134
00000300: 6fc6 70a9 f756 b9a8 1f8f f529 6885 44af
00000310: 97e2 e3ac 6e7b 8ca8 3492 a0b0 ca1f bab2
00000320: 1ffd 8c2a 65b1 6eb0 d60c 3aaa 65ae 1c35
00000330: 70a0 b728 5528 3230 16b4 52a1 7adb 6ba5
00000340: a129 85a7 e28f a7b5 139c c1a9 bd38 4f9f
00000350: 21de a629 596c cfa3 1ebe 0ea9 6b69 d029
00000360: 8fcb 5db4 7a98 3caa 691e b2b5 ed07 121e
00000370: 6c2d 492a 150b 17b0 119c 7c29 15d3 0832
00000380: fb34 dfa6 11b0 eba9 6dbe 9729 af6f fe2f
00000390: d0dd 6427 b335 6729 e810 0b36 cb69 71b7
000003a0: 78a2 59a6 16f3 c9b2 4380 cf29 08a6 0c36
000003b0: becf 5529 f1e3 2729 1dc9 1ba1 c650 a6a5
000003c0: 0240 acb4 115e 5e36 28a5 3aa0 cd3d 4334
000003d0: 3e4a 2daa 353f 70a9 4b4a 65b0 1194 5db6
000003e0: 5568 9436 445f b621 03a5 8834 6eca 512a
000003f0: 138e 2fb7 135a 372a 2ebf ec28 0542 a027

transformer.layers.0.0.fn.fn.to_out.0.weight f4 [64, 64]
-0.000684376 0.00033594188 -0.00037448903 0.0005192605 -0.000701932 0.00081066764 0.0007930136 -0.0005589467
0.00029083583 0.000492185 0.0005372951 0.00023870938 -0.0003068223 9.657696e-06 -0.0001327325 0.00080949365
0.011222124 0.008812328 -0.0067232586 -0.012041018 0.009558282 0.0046602334 0.024605654 0.02058753
-0.021109082 0.02432875 -0.006728996 -0.0295971 0.001205475 -0.00032929156 -0.064773016 -0.00083904254
-0.00034546008 -0.0010951638 0.0010411995 0.0008629231 -0.0058309217 0.00080066785 0.0035731466 -0.005191464
-0.0033001052 0.0029743263 0.0004958954 0.0008258222 0.002106175 0.00075719575 0.0011272685 -0.001083168
-0.0020228971 -0.0013366862 0.0012191295 0.00856976 -0.0013077378 0.0014095928 -0.024494324 0.0012545355
0.0015662835 0.0017994816 0.024918674 -0.0011834004 0.001253978 -0.0012982715 -0.0013280021 -0.0014994825
0.00031079055 -8.649519e-06 2.8441305e-05 -0.00043749934 0.0004130038 -0.00049905916 -0.00046602884 6.623076e-05
-0.0001191345 -0.00028887848 -0.00025121807 -0.00018244155 -9.112337e-06 -0.00019845692 0.00014687135 -0.0004787623
-0.015447083 -0.004577097 -0.023505788 0.016115416 0.005920431 -0.0046507837 -0.0118333595 0.0014265097
-0.00868913 -0.01732228 0.026204033 -0.008468229 -0.0017553127 0.0020872806 -0.017736575 -0.00880875
-0.00044274484 0.0005593272 0.0014416752 0.0002865663 -0.02520688 0.019854348 -0.0012692781 -0.025979884
-0.010275583 -0.0037726453 0.0035456019 -0.0003386667 0.00918376 -0.0007224765 -0.0005028291 0.00055369997
0.00020883235 -0.00051612343 0.0016433668 -0.00355795 -0.0016405865 0.0009133422 -0.012552348 0.0011473438
0.0004475134 -0.0004791441 0.0116488 -0.0016484284 0.001638835 -0.0007780484 -0.0016517275 -0.0006267998
0.00036139897 -0.0005631502 0.0010295828 0.0005849706 0.00012330277 -0.00014515991 -0.00019787316 0.00061685394
0.0011519886 0.00050587294 0.00047847672 0.0017971323 0.00048528152 -0.00076466467 0.0020257747 -0.00017169942
0.07137318 -0.04372191 -0.07766604 -0.07352766 0.049272962 0.0161173 0.093088366 -0.009165742
0.0066419733 0.055464596 0.057664793 0.03956865 0.05925574 0.054820176 0.04199959 -0.04191756
-0.00026916648 0.0010636247 0.0153465 0.00022592832 -0.06577435 0.01759261 -0.00024010529 -0.06774313
-0.05506782 0.020383963 0.04182385 -0.00082043215 0.024312465 -0.0005394355 -0.00097533036 0.0010783015
0.00012220773 -0.00065048074 -0.0013287296 -0.0090505155 0.0013320919 4.602681e-05 -0.10927335 -0.00057401514
0.0002845817 -0.00065147365 0.11810288 0.0012811578 -0.0013394156 0.0008901184 0.0012987974 -0.000372756
-0.00022965849 0.00017722922 4.8139642e-05 0.00019624652 -0.00018000638 4.976544e-05 0.00011992751 -0.00024391247
0.0002732468 -0.00024388102 7.139973e-05 0.00040783494 -0.00021573149 -0.00028651103 0.00037221075 9.579549e-05
0.0011955082 -0.010957825 -0.025869226 -0.014337046 0.014530492 -0.005625641 0.008383916 0.005366168
0.010003367 0.0022103286 0.020707563 -0.013763474 0.0055797435 0.007284537 -0.028888747 -0.010431801
0.00038941822 -0.00014600166 0.0037977917 -0.00041165753 -0.024687663 0.024538074 -0.0001167591 -0.024932802
-0.0066701584 -0.008256046 -0.00020240183 0.00018252549 0.008170918 -0.000105801126 0.0001293824 -0.00013852658
-0.0008106426 -0.0016303178 0.0038064085 0.007409403 -0.0038706337 0.0024508634 -0.028529946 0.002898908
0.001678452 -5.8230273e-07 0.035592638 -0.0037756918 0.0038330588 -0.0020132824 -0.003886247 -0.0019454772
00000000: b267 33ba 5b21 b039 1157 c4b9 fb1e 083a
00000010: dc01 38ba fc82 543a 3ee2 4f3a 4786 12ba
00000020: 537b 9839 fa05 013a 44d9 0c3a 104e 7a39
00000030: fedc a0b9 7d07 2237 1c2e 0bb9 3334 543a
00000040: 00dd 373c 9561 103c c84e dcbb b147 45bc
00000050: 579a 1c3c dfb4 983b cc91 c93c 2ea7 a83c
00000060: f4ec acbc 164d c73c e97e dcbb 9e75 f2bc
00000070: 0701 9e3a c4a4 acb9 b7a7 84bd 31f3 5bba
00000080: de1e b5b9 998b 8fba dc78 883a ca35 623a
00000090: 5111 bfbb e9e3 513a 742b 6a3b 281d aabb
000000a0: 9446 58bb eaec 423b fafe 013a fd7b 583a
000000b0: c107 0a3b 8c7e 463a dbc0 933a 16f9 8dba
000000c0: 9592 04bb bf33 afba 33cb 9f3a 2e68 0c3c
000000d0: 6668 abba 16c2 b83a 52a8 c8bc 3a6f a43a
000000e0: c14b cd3a 95dc eb3a 3f22 cc3c 541c 9bba
000000f0: 855c a43a c32a aaba 5b10 aeba 498a c4ba
00000100: 9af1 a239 671d 11b7 3d95 ee37 2b60 e5b9
00000110: 6f88 d839 4bd3 02ba 5555 f4b9 5ee5 8a38
00000120: d9d7 f9b8 9d74 97b9 ebb5 83b9 c84d 3fb9
00000130: 30e1 18b7 e018 50b9 7a01 1a39 6302 fbb9
00000140: c315 7dbc 79fb 95bb 368f c0bc 7a04 843c
00000150: 2d00 c23b 9a65 98bb b5e0 41bc b9f9 ba3a
00000160: da5c 0ebc 74e7 8dbc d7a9 d63c 54be 0abc
00000170: 8512 e6ba c2ca 083b 4b4c 91bc 9352 10bc
00000180: 3520 e8b9 d09f 123a 98f6 bc3a 473e 9639
00000190: a97e cebc 96a5 a23c e85d a6ba c4d3 d4bc
000001a0: eb5a 28bc 7c3e 77bb 545d 683b 138f b1b9
000001b0: 7b77 163c 9464 3dba 4ad0 03ba 2d26 113a
000001c0: 02fa 5a39 754c 07ba 3d66 d73a 7f2c 69bb
000001d0: f308 d7ba 5c6d 6f3a 5da8 4dbc 7862 963a
000001e0: 3ba0 ea39 a235 fbb9 9cda 3e3c 1410 d8ba
000001f0: 2dce d63a f2f5 4bba c77e d8ba d34f 24ba
00000200: 267a bd39 5fa0 13ba 11f3 863a b658 193a
00000210: d64a 0139 1136 18b9 2c7c 4fb9 5eb4 213a
00000220: 53fe 963a 8f9c 043a 0fdc fa39 c18d eb3a
00000230: 626d fe39 c773 48ba dcc2 043b 360a 34b9
00000240: 1a2c 923d bf15 33bd 5f0f 9fbd ab95 96bd
00000250: 72d2 493d 6e08 843c 1da5 be3d e92b 16bc
00000260: e9a4 d93b d82e 633d eb31 6c3d bd12 223d
00000270: 26b6 723d 1f8b 603d c307 2c3d bfb1 2bbd
00000280: ea1e 8db9 5369 8b3a e36f 7b3c 2ce7 6c39
00000290: b4b4 86bd 611e 903c c6c4 7bb9 e9bc 8abd
000002a0: cb8e 61bd 45fc a63c 7c4f 2b3d 4512 57ba
000002b0: ef2a c73c e768 0dba 50ad 7fba cb55 8d3a
000002c0: e324 0039 0685 2aba c428 aeba 9d48 14bc
000002d0: 9699 ae3a e90c 4138 b5ca dfbd 8179 16ba
000002e0: e933 9539 a8c7 2aba ecdf f13d 86ec a73a
000002f0: 548f afba d656 693a 693c aa3a 776e c3b9
00000300: 7bd0 70b9 9bd6 3939 8ce9 4938 86c7 4d39
00000310: 18c0 3cb9 3cbb 5038 9781 fb38 c1c2 7fb9
00000320: 9142 8f39 50ba 7fb9 70bc 9538 aed2 d539
00000330: fb35 62b9 dc36 96b9 4825 c339 d0e5 c838
00000340: 99b2 9c3a 7388 33bc b3eb d3bc eee5 6abc
00000350: 4d11 6e3c 4c57 b8bb b15c 093c aed6 af3b
00000360: 2ae5 233c 29db 103b e8a2 a93c 3280 61bc
00000370: 48d6 b63b 20b3 ee3b 18a8 ecbc 25ea 2abc
00000380: d42a cc39 0618 19b9 5fe4 783b bdd3 d7b9
00000390: c83d cabc 1204 c93c 91dc f4b8 e03f ccbc
000003a0: 5891 dabb 5e44 07bc d43b 54b9 5064 3f39
000003b0: 50df 053c 8ce1 ddb8 d3aa 0739 7241 11b9
000003c0: 4e81 54ba 63b0 d5ba f074 793b 94ca f23b
000003d0: 75aa 7dbb aa9e 203b a2b7 e9bc 9bfb 3d3b
000003e0: 81ff db3a 8a4f 1cb5 96c9 113d 9971 77bb
000003f0: 0e34 7b3b 46f1 03bb 68b0 7ebb 62ff feba

transformer.layers.0.0.fn.fn.to_out.0.bias f4 [64]
0.010934439 0.014362227 -0.016736941 0.0065516056 0.017200112 0.013511318 -0.041685224 0.014028353
0.017271463 0.013965817 0.04220987 0.012325218 0.0105476845 -0.010694202 0.015485867 0.013620605
0.009797726 0.013838349 0.03228276 0.013440253 0.008756429 -0.011313355 0.016678616 0.0052569094
0.013118225 0.0137356445 0.015534828 0.013994748 -0.028476348 0.013458208 0.005475049 0.012362439
0.015179557 0.022203114 -0.034411754 0.016471157 0.0147653185 -0.013569505 0.013875328 0.013933927
0.011728624 -0.0045630196 0.0058992966 0.014692109 -0.020757021 0.021632344 0.005588659 0.013059887
0.011824622 0.0132383015 0.015317555 0.014078103 0.044913128 0.01326315 0.013690101 0.014005675
-0.007874516 -0.006245867 0.012760278 0.021624578 0.01686331 0.00051037676 0.017710408 -0.020709384
00000000: 5c26 333c 8c4f 6b3c e91b 89bc daae d63b
00000010: 40e7 8c3c 935e 5d3c 20be 2abd 2dd7 653c
00000020: e27c 8d3c e2d0 643c 42e4 2c3d b6ef 493c
00000030: 32d0 2c3c bc36 2fbc 6fb8 7d3c f528 5f3c
00000040: a486 203c 3eba 623c ed3a 043d 8234 5c3c
00000050: 2077 0f3c a65b 39bc 98a1 883c 2742 ac3b
00000060: d3ed 563c 780b 613c cb85 7e3c 3a4a 653c
00000070: 3b47 e9bc d17f 5c3c 0a68 b33b d48b 4a3c
00000080: adb3 783c 4ee3 b53c 57f3 0cbd 85ee 863c
00000090: 3cea 713c a152 5ebc 5855 633c 204b 643c
000000a0: 6a29 403c 6285 95bb e34e c13b 2cb7 703c
000000b0: a10a aabc 5036 b13c 1221 b73b 23f9 553c
000000c0: 0fbc 413c 76e5 583c 7bf6 7a3c d8a7 663c
000000d0: d4f6 373d af4d 593c 724c 603c 0f78 653c
000000e0: 1d04 01bc 21aa ccbb 7c10 513c 0726 b13c
000000f0: ed24 8a3c ceca 053a 6b15 913c baa6 a9bc

transformer.layers.0.1.fn.norm.weight f4 [64]
2.466e-42 -2.139836e-15 -1.576e-42 3.908e-42 -3.185e-42 -1.153e-42 4.043e-42 1.986e-42
5.48e-42 -1.6022307e-16 7.6199816e-14 1.35099265e-17 -1.7309476e-14 2.8020468e-15 -2.941408e-16 -5.63e-42
9.028897e-16 1.844569e-17 -1.453e-42 1.5803282e-33 1.2720002e-15 1.2990345e-37 6.3e-43 3.555e-42
-9.06129e-37 -1.3615523e-27 -3.3258494e-17 2.916e-42 1.11e-43 -4.654e-42 1.4716e-41 -6.799e-42
4.661e-42 1.648e-42 4.0403157e-16 8e-42 -1.0703e-41 1.6210616e-15 -8.02e-43 3.667e-42
-2.5e-42 5.71842e-40 -2.598e-42 -2.8440779e-36 6.821306e-35 -1.55907e-40 1.1e-42 2.714e-42
1.17e-41 -7.138295e-17 -6.298066e-38 4.394e-42 -6.15e-43 4.4680082e-18 -3.624e-42 -1.3617719e-34
-2.0824947e-16 2.0933729e-18 -2.357e-42 -2.566e-42 6.6616907e-16 -4.8e-44 -7.177e-42 -1.32e-43
00000000: e006 0000 0231 1aa7 6504 0080 e50a 0000
00000010: e108 0080 3703 0080 450b 0000 8905 0000
00000020: 470f 0000 81b9 38a5 3496 ab29 d336 7923
00000030: efe8 9ba8 a4e8 4927 858f a9a5 b20f 0080
00000040: c01e 8226 a721 aa23 0d04 0080 dd49 0309
00000050: 8650 b726 bfd0 3002 c201 0000 e909 0000
00000060: 7c2b 9a83 1fbf d792 b360 19a4 2108 0000
00000070: 4f00 0000 f90c 0080 0629 0000 f412 0080
00000080: fe0c 0000 9804 0000 89e8 e825 4d16 0000
00000090: d61d 0080 9e9e e926 3c02 0080 390a 0000
000000a0: f806 0080 103a 0600 3e07 0080 88f2 7184
000000b0: 6757 b506 9bb2 0180 1103 0000 9107 0000
000000c0: 9d20 0000 0e99 a4a4 1d73 ab81 400c 0000
000000d0: b701 0080 25d7 a422 1a0a 0080 b202 3587
000000e0: 6518 70a5 b276 1a22 9206 0080 2707 0080
000000f0: 9a02 4026 2200 0080 0214 0080 5e00 0080

transformer.layers.0.1.fn.norm.bias f4 [64]
-1.428e-42 7.81106e-15 -3.4e-44 -1.391e-42 3.463e-42 -6.7e-44 -1.844e-41 5.1e-43
-5.9e-44 5.591594e-16 -1.7198115e-13 1.0606217e-16 -3.1677037e-14 2.1851876e-14 -9.129814e-17 2.965e-42
8.054793e-17 -1.430146e-17 1.704e-42 -9.922156e-34 -6.147398e-15 1.1187813e-37 3.095e-42 -1.195e-42
7.779109e-36 2.1868698e-27 1.871664e-16 -3.601e-42 -9.53e-43 7.2e-43 -4.173e-42 -1.155e-42
1.443e-42 4.204e-42 6.5569996e-16 3.531e-42 -2.995e-42 -1.3192473e-15 -1.8e-43 -1.858e-42
4.78e-43 -5.9163e-41 2.068e-42 -1.0669436e-35 7.1013157e-34 -3.98709e-40 3.324e-42 -1.64e-43
-1.574e-42 -4.563724e-16 -1.6887932e-37 -2.33e-43 -1.819e-42 2.270105e-16 -5.084e-42 -9.769255e-34
-1.0943269e-16 -2.2973196e-17 -1.397e-42 -1.282e-42 -2.5477112e-15 1.697e-42 2.122e-42 -3.258e-42
00000000: fb03 0080 28b6 0c28 1800 0080 e103 0080
00000010: a709 0000 3000 0080 6733 0080 6c01 0000
00000020: 2a00 0080 ae2a 2126 31a2 41aa 0e90 f424
00000030: 23a9 0ea9 ffd2 c428 e984 d2a4 4408 0000
00000040: 1bbb b924 5ee8 83a3 c004 0000 2fdc a488
00000050: bd7b dda7 d747 1802 a108 0000 5503 0080
00000060: 7f71 2505 fd42 2d13 c5c9 5725 0a0a 0080
00000070: a802 0080 0202 0000 a20b 0080 3803 0080
00000080: 0604 0000 b80b 0000 1efe 3c26 d809 0000
00000090: 5908 0080 a21f bea6 8000 0080 2e05 0080
000000a0: 5501 0000 eca4 0080 c405 0000 efe9 6285
000000b0: 50fb 6b08 7057 0480 4409 0000 7500 0080
000000c0: 6304 0080 578a 03a6 dbdd 6582 a600 0080
000000d0: 1205 0080 d6dc 8225 2c0e 0080 d151 a288
000000e0: a955 fca4 ede3 d3a3 e503 0080 9303 0080
000000f0: fa94 37a7 bb04 0000 ea05 0000 1509 0080

transformer.layers.0.1.fn.fn.net.0.weight f4 [8, 64]
-5.509e-42 6.124902e-17 5.626e-42 2.405e-42 -3.761e-42 -1.994e-42 3.542e-41 -8.37e-42
-2.311e-42 -1.7907746e-16 4.33018e-15 -7.453512e-17 -1.4505182e-15 -8.201831e-16 1.793104e-16 1.641e-42
-7.02201e-16 4.5046754e-17 6.78e-43 -3.7297021e-34 -5.3462274e-16 3.2952198e-38 -2.578e-42 -3.659e-42
6.6857864e-37 6.155595e-28 1.09672926e-16 8.34e-43 8.72e-43 1.753e-42 1.0176e-41 1.23e-43
2.864e-42 -5.558e-42 5.6761504e-17 -7.774e-42 -4.654e-42 -1.3122805e-16 -5.497e-42 -9.84e-43
3.182e-42 -3.702e-41 -4.924e-42 -7.906331e-37 -1.5982648e-35 2.6985e-41 -4.968e-42 -2.706e-42
5.626e-42 -2.4071768e-16 7.009287e-39 -3.446e-42 1.012e-42 -3.6889727e-17 -6.841e-42 1.8998731e-35
1.9841565e-16 3.490307e-17 6.68e-42 5.951e-42 -3.0331302e-16 -5.193e-42 -1.1557e-41 -5.915e-42
2.706e-42 4.5591146e-16 1.337e-42 -5.86e-43 -2.583e-42 2.697e-42 -7.442e-42 1.205e-42
-4.62e-43 -5.1084425e-17 1.835152e-16 1.4754864e-17 -1.7049568e-15 -2.2950985e-16 -1.838521e-16 -2.438e-42
-2.2079884e-17 -1.3449913e-17 1.138e-42 -1.0969027e-34 2.8109244e-16 -2.436858e-39 3.56e-43 -2.199e-42
-1.890464e-37 1.7906057e-28 -1.0810233e-16 1.197e-42 7.8e-43 1.868e-42 -4.378e-42 4.696e-42
5.972e-42 -4.01e-42 3.0707321e-16 -2.134e-42 2.912e-42 9.047623e-17 -5.157e-42 3.628e-42
3.79e-42 8.7794e-41 4.843e-42 1.0561429e-36 5.2247165e-36 -2.1605e-41 -5.21e-42 6.22e-43
5.476e-42 -1.2536052e-16 -2.1452576e-38 -3.8e-42 3.63e-43 2.5398978e-18 -3.576e-42 3.726678e-35
-5.1414797e-17 2.0402347e-17 2.16e-43 -4.65e-43 -8.759785e-17 -4.253e-42 -5.731e-42 -4.895e-42
7.466e-42 -3.581244e-16 6.994e-42 5.2e-42 -4.927e-42 -5.741e-42 -3.0861e-41 -3.945e-42
1.512e-42 9.465216e-17 -1.0733077e-10 -5.118531e-16 3.9560033e-16 -7.6789286e-16 -1.4444789e-16 8.69e-43
1.5070535e-16 -8.496913e-18 1.886e-42 -6.220036e-35 7.6091103e-16 1.1496784e-38 -1.191e-42 -2.734e-42
-1.1712397e-37 1.5246486e-27 -2.0690899e-17 5.89e-43 -1.178e-42 3.009e-42 -1.1295926e-38 1.712e-42
-9.29e-43 -2.176e-42 1.2776375e-15 -2.316e-42 -4.11e-42 -1.3132968e-16 4.187e-42 1.344e-42
5.042e-42 -1.78109e-40 -5.81e-42 -2.1996341e-37 -8.271927e-36 1.08301e-40 -9.867e-42 -1.7e-43
-3.64e-43 6.857616e-17 2.21812e-38 -1.512e-42 -1.67e-43 -2.3281622e-17 7.184e-42 -2.4935857e-35
-6.27428e-17 -5.5165436e-17 6.152e-42 1.1398e-41 1.8938256e-16 -5.56e-43 2.398e-42 -1.6e-42
-1.1035e-41 7.979035e-17 9.851e-42 7.881e-42 7.781e-42 9.839e-42 3.8976e-41 7.69e-42
-2.245e-42 7.0043325e-17 -3.2589717e-16 3.571177e-17 1.6098197e-16 8.3230844e-16 7.2965165e-17 1.0745e-41
8.374835e-17 2.4388492e-17 1.166e-41 1.0150031e-34 4.1851944e-17 -1.0311909e-38 -1.855e-42 -1.5186e-41
-5.023125e-39 -4.4960656e-28 -3.0245373e-17 2.7e-44 3.57e-42 -1.4183e-41 1.93e-43 1.0506e-41
-4.886e-42 9.22e-42 -4.0581007e-16 2.576e-42 -6.625e-42 1.3602395e-16 1.764e-42 1.1795e-41
-8.93e-43 -2.97905e-40 1.1133e-41 1.1119481e-36 3.1431412e-36 3.94e-43 -6.442e-42 -7.758e-42
1.177e-41 -9.22002e-17 5.153038e-39 9.583e-42 -3.9e-42 4.016124e-18 8.8e-44 -1.1907061e-31
-2.7140775e-17 -3.467281e-17 -2.654e-42 -3.625e-42 -2.246627e-16 5.82e-43 -2.985e-42 -8.902e-42
00000000: 5b0f 0080 0a3b 8d24 af0f 0000 b406 0000
00000010: 7c0a 0080 8f05 0080 bd62 0000 5517 0080
00000020: 7106 0080 5676 4ea5 dc02 9c27 c5dd aba4
00000030: ad0a d1a6 d566 6ca6 17bb 4e25 9304 0000
00000040: 4a65 4aa6 d2bd 4f24 e401 0000 98e1 f787
00000050: 3218 1aa6 a968 3301 3007 0080 330a 0080
00000060: 6a81 6303 1f14 4312 78e3 fc24 5302 0000
00000070: 6e02 0000 e304 0000 5e1c 0000 5800 0000
00000080: fc07 0000 7e0f 0080 14e2 8224 ac15 0080
00000090: f90c 0080 af4b 17a5 530f 0080 be02 0080
000000a0: df08 0000 3267 0080 ba0d 0080 ee84 8683
000000b0: e8f4 a985 394b 0000 d90d 0080 8b07 0080
000000c0: af0f 0000 a9c3 8aa5 0a53 4c00 9b09 0080
000000d0: d202 0000 b41f 2aa4 1213 0080 7707 ca05
000000e0: f7c1 6425 46f6 2024 9f12 0000 9710 0000
000000f0: 1ad9 aea5 7a0e 0080 3720 0080 7d10 0080
00000100: 8b07 0000 5468 0326 ba03 0000 a201 0080
00000110: 3307 0080 8507 0000 bf14 0080 5c03 0000
00000120: 4a01 0080 d895 6ba4 2094 5325 f016 8823
00000130: ceb5 f5a6 ad4d 84a5 90f7 53a5 cc06 0080
00000140: a7a6 cba3 6b1b 78a3 2c03 0000 aacd 1187
00000150: ec09 a225 f888 1a80 fe00 0000 2106 0080
00000160: 87a8 8082 7afc 6211 5a44 f9a4 5603 0000
00000170: 2d02 0000 3505 0000 340c 0080 170d 0000
00000180: a610 0000 2e0b 0080 0204 b125 f305 0080
00000190: 1e08 0000 bd9f d024 600e 0080 1d0a 0000
000001a0: 910a 0000 bcf4 0000 800d 0000 83b1 b303
000001b0: 203c de04 3a3c 0080 860e 0080 bc01 0000
000001c0: 440f 0000 e587 10a5 0e99 e980 980a 0080
000001d0: 0301 0000 5069 3b22 f809 0080 ea24 4606
000001e0: e11b 6da4 ae2d bc23 9a00 0000 4c01 0080
000001f0: a5fc c9a4 db0b 0080 fa0f 0080 a50d 0080
00000200: d014 0000 d571 cea5 7f13 0000 7f0e 0000
00000210: bc0d 0080 0110 0080 0756 0080 ff0a 0080
00000220: 3704 0000 c640 da24 da05 ecae 1888 13a6
00000230: 4e0c e425 7e54 5da6 7e89 26a5 6c02 0000
00000240: 5ec0 2d25 8abd 1ca3 4205 0000 5f5b a586
00000250: 5351 5b26 5b30 7d00 5203 0080 9f07 0080
00000260: bf6b 1f82 1897 f112 01d7 bea3 a401 0000
00000270: 4903 0080 6308 0000 7200 7b80 c604 0000
00000280: 9702 0080 1106 0080 8120 b826 7506 0080
00000290: 750b 0080 ae69 17a5 ac0b 0000 bf03 0000
000002a0: 0e0e 0000 7ff0 0180 3210 0080 08b3 9582
000002b0: a8ec 2f85 e62d 0100 811b 0080 7900 0080
000002c0: 0401 0080 3820 9e24 2988 f100 3704 0080
000002d0: 7700 0080 2dbc d6a3 0714 0000 ee94 0486
000002e0: d0ac 90a4 da67 7ea4 2611 0000 c61f 0000
000002f0: de57 5a25 8d01 0080 af06 0000 7604 0080
00000300: c31e 0080 e9fb b724 761b 0000 f815 0000
00000310: b115 0000 6d1b 0000 a66c 0000 7015 0000
00000320: 4206 0080 4882 a124 efdd bba5 04b1 2424
00000330: 7e99 3925 86e5 6f26 083f a824 f41d 0000
00000340: 4d1c c124 b3f1 e023 8120 0000 c4ea 0607
00000350: 0e02 4124 6849 7080 2c05 0080 552a 0080
00000360: 6eb2 3680 6b7c 0e92 6f7b 0ba4 1300 0000
00000370: f409 0000 8927 0080 8a00 0000 491d 0000
00000380: 9f0d 0080 b419 0000 ffee e9a5 2e07 0000
00000390: 7812 0080 2fd3 1c25 eb04 0000 e120 0000
000003a0: 7d02 0080 703e 0380 091f 0000 2c30 bd03
000003b0: c7b1 8504 1901 0000 f511 0080 a015 0080
000003c0: cf20 0000 6499 d4a4 931c 3800 b71a 0000
000003d0: df0a 0080 382b 9422 3f00 0000 ff8f 1a8c
000003e0: 5854 faa3 6ee6 1fa4 6607 0080 1b0a 0080
000003f0: 5d82 81a5 9f01 0000 5208 0080 d118 0080

transformer.layers.0.1.fn.fn.net.0.bias f4 [8]
1.5503192e-05 -1.284349e-05 -1.5707361e-06 -6.31179e-06 6.6770685e-06 -1.5816724e-05 5.429059e-06 -0.00042417724
00000000: da0c 8237 5f7a 57b7 15d2 d2b5 ddc9 d3b6
00000010: 950b e036 28ae 84b7 432b b636 1b64 deb9

transformer.layers.0.1.fn.fn.net.3.weight f4 [64, 8]
3.5525845e-05 -1.913521e-05 -2.3828336e-05 -1.8391129e-05 -1.0511781e-05 -5.7273293e-05 -3.204471e-05 0.00012452355
1.2432466e-05 -1.3238832e-05 -7.0289093e-06 -6.617084e-06 -2.6682656e-06 -3.2577253e-05 -4.7337976e-06 -0.0002657003
3.216013e-05 -1.4516442e-05 -4.154961e-05 -1.7453644e-05 1.7221786e-05 -3.7369366e-05 -3.5800593e-05 -0.000570928
1.810347e-05 -5.93207e-06 -3.2747357e-06 -7.5276275e-06 -9.031154e-06 -1.7273203e-05 -6.4052697e-06 0.00053484435
5.3603027e-05 2.6066e-05 -3.1414256e-05 -2.5553729e-05 3.5191202e-05 -6.6661014e-05 6.138466e-06 0.00025742708
8.1644785e-06 -9.333381e-06 -1.2043225e-06 -2.2961194e-06 -1.5475688e-06 -2.3707702e-05 9.879955e-07 0.00018544325
1.793391e-05 3.1224397e-05 -4.2022755e-05 -1.6439244e-05 2.3673374e-05 -2.464765e-05 1.9356463e-05 7.104618e-07
2.2266553e-05 -1.1480988e-05 -6.005522e-06 -6.8187783e-06 -3.1365835e-06 -3.416921e-05 -2.2011e-06 0.0004363982
-2.9567282e-05 1.2524835e-05 3.458556e-06 8.982163e-06 -1.8868103e-06 2.0239735e-05 5.558516e-06 -0.00018792624
2.607476e-05 -1.2926109e-05 -1.1878906e-05 -9.925667e-06 2.1886383e-06 -4.3896234e-05 -1.2782037e-05 4.2875345e-05
2.531137e-05 -1.8732706e-05 -7.0463384e-06 -5.0766616e-06 9.158662e-06 -2.7868251e-05 3.8957273e-06 -0.00028332812
2.7760507e-05 -1.4166118e-05 -1.055247e-05 -1.078197e-05 -6.8725863e-06 -4.360263e-05 -1.4114398e-05 0.00027497302
1.742389e-05 -1.0552482e-05 -3.6528606e-06 -6.105741e-06 9.5072517e-07 -3.2698248e-05 -4.5753695e-06 0.00017433643
-2.5092178e-05 1.4022634e-05 4.9107935e-06 3.6835315e-06 3.6217698e-05 3.39171e-05 9.652105e-06 -0.0011236136
2.933935e-05 -1.700855e-05 -5.505865e-06 -1.20628965e-05 -1.3668831e-06 -4.7372654e-05 -6.8620398e-06 0.00033027687
2.5175103e-05 -1.8105544e-05 -4.075811e-06 -6.6481343e-06 2.8082575e-06 -5.0655235e-05 -2.3080281e-06 -0.00018298817
-2.5644536e-05 9.205418e-06 8.171479e-06 1.7220107e-05 3.741889e-05 2.0597026e-05 2.1201675e-05 -0.0011632902
1.8408864e-05 -1.38287e-05 -8.838885e-06 -5.4867814e-06 5.3412173e-06 -3.5904766e-05 -7.474125e-06 -0.00030319768
-8.24813e-06 -2.1205374e-06 1.4174351e-05 7.967832e-06 1.8719851e-05 1.0060523e-05 3.5313617e-05 0.0006104507
2.5600935e-05 -1.7001856e-05 -9.055105e-06 -6.5924933e-06 -1.8609795e-08 -3.6757832e-05 -6.8679606e-06 5.777913e-05
3.676965e-05 -2.223158e-05 -2.0825635e-05 -1.4582818e-05 -4.5990864e-06 -5.2384963e-05 -2.5379886e-05 -6.517197e-05
5.7500416e-05 2.1605993e-05 -0.00017197839 -2.1274687e-05 -0.00056729297 2.2789472e-05 -0.00018649346 0.0005882933
2.5202286e-05 -1.673106e-05 -1.169067e-05 -9.565612e-06 -3.021616e-06 -3.591148e-05 -9.140572e-06 0.0002252787
4.0707848e-05 -2.1602005e-05 -1.6523072e-05 -1.5013503e-05 -1.1483168e-05 -5.902413e-05 -2.1138292e-05 0.0003118796
3.2040578e-05 -1.6782655e-05 -1.0236074e-05 -1.1636891e-05 -1.0279423e-06 -4.6060097e-05 -1.1072845e-05 0.00028411366
8.5528645e-06 -3.7080927e-06 -6.3550256e-06 -2.070138e-06 6.2108743e-06 -1.0954791e-05 -2.3501104e-06 -0.00039518296
7.97933e-06 -6.5392983e-06 -5.830198e-06 -2.655353e-06 6.226388e-06 -1.9221205e-05 -4.842626e-06 -0.00025083293
2.7380265e-05 -1.5362995e-05 -1.2338831e-05 -9.481536e-06 1.4387073e-06 -4.178756e-05 -1.3280716e-05 -0.00017954885
3.4528115e-05 -2.1783848e-05 -3.2440308e-05 -1.9107187e-05 -6.331937e-05 -4.6304343e-05 -4.195001e-05 0.00038385464
9.732371e-06 -5.466702e-06 -5.7289762e-06 -4.1848866e-06 2.7978258e-06 -1.8978035e-05 -5.7796196e-06 -4.12372e-05
2.1062557e-05 -2.5205109e-06 -2.1138332e-05 -1.3724428e-05 -2.4335268e-05 -2.2753393e-05 -3.924214e-05 -0.00032591054
1.5342898e-06 -3.0753276e-06 -5.4793104e-06 9.716836e-07 9.43563e-06 -2.1561942e-05 4.2134664e-07 -0.0003879306
00000000: 9601 1538 8d84 a0b7 f6e2 c7b7 a646 9ab7
00000010: c15b 30b7 bb38 70b8 bf67 06b8 8992 0239
00000020: 0995 5037 5a1c 5eb7 dfd9 ebb6 5208 deb6
00000030: 7410 33b6 8fa3 08b8 03d7 9eb6 b14d 8bb9
00000040: ade3 0638 a58b 73b7 8e45 2eb8 6a69 92b7
00000050: 8177 9037 0dbd 1cb8 9828 16b8 54aa 15ba
00000060: e8dc 9737 180c c7b6 88c3 5bb6 d495 fcb6
00000070: 8384 17b7 ece5 90b7 d9ec d6b6 cc34 0c3a
00000080: d0d3 6038 4fa8 da37 cdc2 03b8 375c d6b7
00000090: 449a 1338 5ccc 8bb8 05f9 cd36 47f7 8639
000000a0: 2bfa 0837 9196 1cb7 35a4 a1b5 0817 1ab6
000000b0: 0fb6 cfb5 e7df c6b7 449b 8435 8b73 4239
000000c0: c770 9637 f1f6 0238 9741 30b8 02e7 89b7
000000d0: 2f96 c637 6dc2 ceb7 b05f a237 90b6 3e35
000000e0: 0fc9 ba37 789e 40b7 0b83 c9b6 dccc e4b6
000000f0: 187e 52b6 e950 0fb8 9cb6 13b6 60cc e439
00000100: 4107 f8b7 c221 5237 8a19 6836 19b2 1637
00000110: 4f3e fdb5 80c8 a937 4a83 ba36 110e 45b9
00000120: 1fbb da37 37dd 58b7 834b 47b7 6a86 26b7
00000130: 85e0 1236 391d 38b8 6e72 56b7 0dd5 3338
00000140: c153 d437 2e24 9db7 966f ecb6 3158 aab6
00000150: 27a8 1937 9dc6 e9b7 0bb8 8236 a88b 94b9
00000160: 3cdf e837 03ab 6db7 830a 31b7 35e4 34b7
00000170: 119b e6b6 f8e1 36b8 e1cc 6cb7 412a 9039
00000180: 8529 9237 910a 31b7 ab23 75b6 eadf ccb6
00000190: 5635 7f35 7a25 09b8 2086 99b6 14ce 3639
000001a0: 0b7d d2b7 c142 6b37 65c7 a436 9732 7736
000001b0: 75e8 1738 3542 0e38 7aef 2137 3746 93ba
000001c0: c61d f637 95ad 8eb7 05bf b8b6 bf61 4ab7
000001d0: bf75 b7b5 00b2 46b8 7940 e6b6 0329 ad39
000001e0: 1f2f d337 5ce1 97b7 f3c2 88b6 0a13 dfb6
000001f0: 7f75 3c36 a576 54b8 9fe3 1ab6 83e0 3fb9
00000200: 391f d7b7 f870 1a37 3c18 0937 e673 9037
00000210: 3af2 1c38 c7c7 ac37 40da b137 8b79 98ba
00000220: bc6c 9a37 d001 68b7 b94a 14b7 181b b8b6
00000230: b538 b336 7398 16b8 3fca fab6 81f6 9eb9
00000240: 7361 0ab7 8e4e 0eb6 60ce 6d37 94ad 0537
00000250: 9308 9d37 9ec9 2837 b51d 1438 a706 203a
00000260: 97c1 d637 359f 8eb7 61eb 17b7 1635 ddb6
00000270: 5fdb 9fb2 6c2c 1ab8 5573 e6b6 de57 7238
00000280: 1c39 1a38 f47d bab7 b6b2 aeb7 baa8 74b7
00000290: da51 9ab6 edb7 5bb8 e4e6 d4b7 efac 88b8
000002a0: 9a2c 7138 843e b537 1955 34b9 0b77 b2b7
000002b0: 63b6 14ba 052c bf37 758d 43b9 b237 1a3a
000002c0: 7f69 d337 ae59 8cb7 0c23 44b7 fe7b 20b7
000002d0: f8c6 4ab6 a89f 16b8 755a 19b7 ca38 6c39
000002e0: b8bd 2a38 f435 b5b7 079b 8ab7 81e2 7bb7
000002f0: d5a7 40b7 ad90 77b8 2352 b1b7 c583 a339
00000300: 4f63 0638 7ac8 8cb7 9abb 2bb7 113c 43b7
00000310: d4f7 89b5 a730 41b8 82c5 39b7 17f5 9439
00000320: 467e 0f37 8cd8 78b6 413d d5b6 b3ec 0ab6
00000330: 0167 d036 78ca 37b7 97b6 1db6 8f30 cfb9
00000340: f6de 0537 256c dbb6 05a1 c3b6 9e32 32b6
00000350: 44ec d036 393d a1b7 d77d a2b6 3a82 83b9
00000360: acae e537 c8df 80b7 e002 4fb7 e312 1fb7
00000370: 9b19 c135 0d45 2fb8 3ed0 5eb7 4745 3cb9
00000380: 48d2 1038 75bc b6b7 8410 08b8 5f48 a0b7
00000390: 54ca 84b8 e936 42b8 7bf3 2fb8 1940 c939
000003a0: 3748 2337 9d6e b7b6 883b c0b6 e76b 8cb6
000003b0: 48c2 3b36 0533 9fb7 8eee c1b6 1bf6 2cb8
000003c0: 7faf b037 0c26 29b6 3952 b1b7 f841 66b7
000003d0: 9723 ccb7 8ade beb7 ed97 24b8 f9de aab9
000003e0: cced cd35 ba61 4eb6 ebda b7b6 cb6a 8235
000003f0: b94d 1e37 ebdf b4b7 7135 e234 2a63 cbb9

transformer.layers.0.1.fn.fn.net.3.bias f4 [64]
0.0049504344 0.0017950997 0.0036126487 0.003296972 0.0039550653 -0.001706389 0.0013521052 0.0007030515
-0.004144737 0.00067968696 0.008367044 -0.0018455102 -0.0006391133 -0.0025039113 -0.000113357724 -0.0013575209
0.0005358202 -0.00048085098 -0.0008613874 -0.0013654783 -0.003100313 -0.0032200355 -0.00034458714 -0.002877224
0.0026339965 0.00038827595 -0.0011387002 -0.0018707259 -0.001021842 -0.00038315286 -0.0011817389 -0.0006252545
-0.0013459258 0.0011798202 0.0017676483 0.000489479 -0.0007432724 0.0007656644 0.0059890687 0.00022203237
-0.005862767 -0.003823348 -0.0024681184 5.237571e-05 0.003137561 -0.0089038955 -0.010739197 0.001954389
-0.00044373557 -1.4668431e-05 -0.00072146556 0.00061452616 0.0011721838 -0.00026168814 -0.002594206 1.8344963e-05
0.002520938 0.001479158 0.0012247188 -0.00087935873 -0.0014324639 -0.0016951936 -0.0021040477 -0.0035812194
00000000: 4137 a23b 8d49 eb3a 30c2 6c3b 0312 583b
00000010: 7e99 813b eaa8 dfba 1f39 b13a fd4c 383a
00000020: 93d0 87bb 052d 323a ed15 093c 0ce5 f1ba
00000030: 2b8a 27ba a918 24bb 77ba edb8 d8ee b1ba
00000040: 4976 0c3a ba1a fcb9 bbce 61ba d9f9 b2ba
00000050: 9f2e 4bbb 3b07 53bb b4a9 b4b9 cf8f 3cbb
00000060: 219f 2c3b 8491 cb39 7040 95ba 2533 f5ba
00000070: 54ef 85ba e8e1 c8b9 94e4 9aba 1fe8 23ba
00000080: c769 b0ba 32a4 9a3a 6fb0 e73a 6150 003a
00000090: 2bd8 42ba deb6 483a f33f c43b 5cd1 6839
000000a0: 741c c0bb 2391 7abb 28c0 21bb fead 5b38
000000b0: 8a9f 4d3b a5e1 11bc 75f3 2fbc 3515 003b
000000c0: 2ea5 e8b9 6e18 76b7 bc20 3dba 2718 213a
000000d0: f6a3 993a 3033 89b9 8e03 2abb 82e3 9937
000000e0: 5236 253b 4ee0 c13a be86 a03a c484 66ba
000000f0: 83c1 bbba 4231 deba 10e4 09bb e4b2 6abb

transformer.layers.1.0.fn.norm.weight f4 [64]
-9.4985086e-07 1.4579601e-07 -3.5203282e-06 1.1680509e-05 -9.765598e-07 -4.303867e-09 -0.00039165077 6.059485e-08
-2.6152708e-05 -4.262178e-12 0.00028912583 6.020128e-09 -0.00011549322 0.00015636533 -0.00017429196 -3.6354898e-14
4.4711396e-05 3.3475933e-12 1.4224125e-05 -6.787475e-05 -0.00020763784 -0.00066698104 8.130867e-12 -3.5595026e-06
-2.5162667e-11 0.00013728114 4.2567547e-11 -4.123161e-09 2.408785e-05 -1.6611031e-05 -0.00014622991 1.694374e-12
3.090109e-08 -0.0001520729 -1.8654158e-05 -4.1157293e-08 1.0109019e-08 0.3908431 0.00013845408 -6.607434e-11
2.530184e-07 0.00063896686 -2.5588626e-05 -8.130202e-10 0.34286645 -9.521506e-09 2.5805102e-10 -1.6025414e-11
-7.3314226e-08 -6.3702736e-09 -2.1608355e-05 -4.2581134e-09 0.0033392012 -7.235498e-14 1.5234133e-09 -2.5010793e-13
0.0003629627 -2.9397478e-07 5.2238096e-07 -1.1348385e-05 2.3669093e-11 -0.000118580756 0.00047675244 -4.6417003e-06
00000000: 41f9 7eb5 1a8c 1c34 c73e 6cb6 67f7 4337
00000010: 5712 83b5 37e1 93b1 7a56 cdb9 5f20 8233
00000020: 8362 dbb7 49f6 95ac d095 9739 9bd9 ce31
00000030: f334 f2b8 00f6 2339 24c2 36b9 58ba 23a9
00000040: 7f88 3b38 e190 6b2c 27a4 6e37 fb57 8eb8
00000050: 5cb9 59b9 57d8 2eba 2b0a 0f2d cadf 6eb6
00000060: 4a55 ddad 20f3 0f39 cc36 3b2e b5ab 8db1
00000070: 4410 ca37 eb57 8bb7 4b55 19b9 4276 ee2b
00000080: 1cb8 0433 c275 1fb9 807b 9cb7 ecc4 30b3
00000090: f0ab 2d32 961c c83e fc2d 1139 8c4c 91ae
000000a0: 96d6 8734 5780 273a 28a7 d6b7 367b 5fb0
000000b0: 318c af3e 0794 23b2 74dd 8d2f 06f6 8cad
000000c0: ec70 9db3 85e1 dab1 9743 b5b7 c34e 92b1
000000d0: 80d6 5a3b ceed a2a9 5760 d130 5acc 8caa
000000e0: 074c be39 96d3 9db4 bf39 0c35 f164 3eb7
000000f0: 0f32 d02d 8fae f8b8 a1f4 f939 e7bf 9bb6
