Pavia_model/India_1D-cnn.pt (torch, 247127 bytes, 6 tensors)

conv.weight f4 [20, 1, 12]
0	0x3e1dcbec	0.15409821
1	0x3e648d3c	0.22319502
2	0x3e73fcf9	0.2382697
3	0x3e78a0fc	0.2428016
4	0x3e82ee38	0.2557237
5	0x3e89a275	0.26881757
6	0x3e84b151	0.25916532
7	0x3e817b93	0.25289592
8	0x3e86a170	0.26295042
9	0x3e7d8335	0.24757083
10	0x3e6effc3	0.23339753
11	0x3e708740	0.23489094
12	0xbe4d40e7	-0.2004429
13	0xbe5c91fe	-0.21540067
14	0xbe79bf65	-0.24389417
15	0xbe8ca675	-0.27470747
16	0xbe948965	-0.29011074
17	0xbe9065d9	-0.28202704
18	0xbe8f3e17	-0.27977058
19	0xbe980d6e	-0.29697746
20	0xbe8c0a2b	-0.27351508
21	0xbe868d39	-0.2627962
22	0xbe82b1a1	-0.25526145
23	0xbe449d01	-0.19200517
24	0xbe4c7db8	-0.19969833
25	0xbe5bd8c7	-0.21469413
26	0xbe792b82	-0.24333003
27	0xbe8c7c4e	-0.27438587
28	0xbe947798	-0.28997493
29	0xbe904cba	-0.28183538
30	0xbe8f1b60	-0.27950573
31	0xbe98082e	-0.2969374
32	0xbe8c1ef7	-0.27367374
33	0xbe86d3af	-0.26333377
34	0xbe831468	-0.25601506
35	0xbe453ce0	-0.19261503
36	0xbea68041	-0.32519725
37	0xbeab3b88	-0.33443856
38	0xbeb24c4e	-0.3482384
39	0xbeb87aba	-0.36031133
40	0xbeb984c3	-0.36234102
41	0xbeb522d6	-0.3537814
42	0xbeb30bd5	-0.34969965
43	0xbeb3aa0d	-0.35090676
44	0xbea8d46d	-0.32974568
45	0xbea0b101	-0.31385043
46	0xbe980ffe	-0.296997
47	0xbe7ae3c6	-0.24500951
48	0x3e1da02b	0.1539313
49	0x3e65844d	0.2241375
50	0x3e74ff86	0.239256
51	0x3e7a3878	0.24435604
52	0x3e843093	0.2581831
53	0x3e8b303d	0.2718524
54	0x3e86a5c2	0.26298338
55	0x3e83d7ab	0.2575048
56	0x3e895a19	0.26826552
57	0x3e81c18c	0.25342977
58	0x3e7580ca	0.2397491
59	0x3e77d69b	0.24202959
60	0xbe94c41f	-0.2905588
61	0xbe99bfff	-0.30029294
62	0xbea196eb	-0.31560454
63	0xbea8f524	-0.32999527
64	0xbeab09e6	-0.3340599
65	0xbea65611	-0.32487538
66	0xbea3e022	-0.32006937
67	0xbea5c366	-0.3237564
68	0xbe9a637a	-0.3015402
69	0xbe922aac	-0.2854818
70	0xbe89d101	-0.2691727
71	0xbe5c0271	-0.21485306
72	0x3e6d382b	0.23165958
73	0x3e895624	0.26823533
74	0x3e8fd871	0.2809482
75	0x3e905cb2	0.2819572
76	0x3e91f65c	0.2850827
77	0x3e93fb40	0.28902626
78	0x3e8d368c	0.27580678
79	0x3e87bcc7	0.26511213
80	0x3e87e3b5	0.26540914
81	0x3e7b6b34	0.24552613
82	0x3e6722b4	0.22571832
83	0x3e59afd4	0.2125848
84	0xbe4dcabd	-0.2009687
85	0xbe5d0736	-0.21584782
86	0xbe7a1f59	-0.2442602
87	0xbe8cc808	-0.27496362
88	0xbe94a36f	-0.2903094
89	0xbe9067d1	-0.28204206
90	0xbe8f16db	-0.27947125
91	0xbe97d171	-0.2965198
92	0xbe8bc76a	-0.27300578
93	0xbe863a2f	-0.26216266
94	0xbe823756	-0.25432843
95	0xbe43cb34	-0.19120485
96	0xbe4ca401	-0.19984438
97	0xbe5bfff7	-0.21484362
98	0xbe795818	-0.24350011
99	0xbe8c96a9	-0.27458695
100	0xbe9496f0	-0.29021406
101	0xbe9071cb	-0.28211817
102	0xbe8f4ab7	-0.2798669
103	0xbe983f9f	-0.2973604
104	0xbe8c4728	-0.27398038
105	0xbe86e437	-0.2634599
106	0xbe83182e	-0.25604385
107	0xbe455362	-0.1927009
108	0x3e1e2178	0.15442455
109	0x3e64985c	0.22323745
110	0x3e7413c9	0.23835672
111	0x3e7896a4	0.24276215
112	0x3e82d4c6	0.25552958
113	0x3e897b25	0.26851764
114	0x3e846681	0.25859454
115	0x3e811e4d	0.2521843
116	0x3e863141	0.26209453
117	0x3e7c1724	0.24618202
118	0x3e6ce783	0.2313519
119	0x3e6e1608	0.23250592
120	0x3e1dda51	0.15415312
121	0x3e64ac15	0.22331269
122	0x3e742333	0.23841552
123	0x3e78c571	0.24294068
124	0x3e8301d5	0.25587335
125	0x3e89b916	0.26899022
126	0x3e84c559	0.25931814
127	0x3e818e14	0.2530371
128	0x3e86b537	0.2631013
129	0x3e7da208	0.24768841
130	0x3e6efee1	0.23339416
131	0x3e7089c9	0.23490061
132	0x3e1e1902	0.15439227
133	0x3e65f722	0.22457555
134	0x3e757df6	0.23973832
135	0x3e7a5f03	0.24450307
136	0x3e840b08	0.25789666
137	0x3e8af8ab	0.27142844
138	0x3e8638a4	0.26215088
139	0x3e833046	0.25622767
140	0x3e888b09	0.26668575
141	0x3e80bacc	0.25142515
142	0x3e732494	0.23744422
143	0x3e752ff4	0.23944074
144	0x3e1dd876	0.15414605
145	0x3e639220	0.22223711
146	0x3e72e837	0.23721395
147	0x3e775b2c	0.24155873
148	0x3e8219dd	0.25410357
149	0x3e889f87	0.2668421
150	0x3e8388ad	0.25690213
151	0x3e8039e0	0.25044155
152	0x3e8532ca	0.2601531
153	0x3e7a1b52	0.24424484
154	0x3e6af381	0.22944452
155	0x3e6bf5d6	0.23042998
156	0xbea55863	-0.32293996
157	0xbea9f3b1	-0.33193734
158	0xbeafd3c3	-0.3434125
159	0xbeb4cbcb	-0.35311732
160	0xbeb56f37	-0.35436413
161	0xbeb1a3a2	-0.34695154
162	0xbeafbc29	-0.34323242
163	0xbeafc02c	-0.34326303
164	0xbea65e08	-0.32493615
165	0xbe9ef934	-0.31049502
166	0xbe975b08	-0.2956164
167	0xbe800a17	-0.25007698
168	0x3e2fb12b	0.17157428
169	0x3e61e781	0.22060968
170	0x3e7041ed	0.23462649
171	0x3e7218b6	0.23642239
172	0x3e783bfd	0.24241634
173	0x3e7fbb86	0.24973878
174	0x3e71d245	0.23615368
175	0x3e6795e3	0.22615771
176	0x3e6c0d0f	0.23051856
177	0x3e586d46	0.21135435
178	0x3e44fc1f	0.19236802
179	0x3e3d058e	0.1845915
180	0x3e1e27e7	0.15444909
181	0x3e662b3d	0.22477432
182	0x3e75afe0	0.23992872
183	0x3e7aa0f8	0.24475467
184	0x3e8437f5	0.25823942
185	0x3e8b2b68	0.27181554
186	0x3e8668a8	0.2625172
187	0x3e835fc4	0.25659
188	0x3e88be15	0.2670752
189	0x3e80f28a	0.25185043
190	0x3e73a1d8	0.23792207
191	0x3e75a18d	0.23987408
192	0x3e1dfcb7	0.15428434
193	0x3e660142	0.22461417
194	0x3e7587ab	0.23977534
195	0x3e7ab3c0	0.24482632
196	0x3e845f9e	0.258542
197	0x3e8b5ed3	0.27220783
198	0x3e86bdb4	0.26316607
199	0x3e83d34b	0.2574714
200	0x3e894497	0.26810142
201	0x3e81824a	0.25294715
202	0x3e74abba	0.23893633
203	0x3e76cd1d	0.24101682
204	0x3e1dc0bd	0.15405555
205	0x3e643e0e	0.22289297
206	0x3e73b0c2	0.23797897
207	0x3e7859f3	0.24253063
208	0x3e82cac5	0.25545326
209	0x3e8978c9	0.26849964
210	0x3e8481dd	0.25880328
211	0x3e815221	0.25257972
212	0x3e867243	0.2625905
213	0x3e7cddf3	0.24694042
214	0x3e6e03a6	0.2324358
215	0x3e6f6331	0.23377682
216	0x3e1df91e	0.15427062
217	0x3e651b59	0.22373714
218	0x3e74a457	0.23890816
219	0x3e796099	0.24353255
220	0x3e8364e2	0.25662905
221	0x3e8a2c92	0.2698713
222	0x3e853e48	0.2602408
223	0x3e8211ea	0.25404292
224	0x3e874767	0.26421663
225	0x3e7eb28b	0.24872796
226	0x3e6fffb8	0.23437393
227	0x3e719e18	0.23595464
228	0xbe5643fd	-0.20924373
229	0xbe648c31	-0.22319104
230	0xbe7ec253	-0.24878816
231	0xbe8d718d	-0.27625695
232	0xbe946335	-0.2898194
233	0xbe8fe032	-0.28100735
234	0xbe8e1dc5	-0.27757087
235	0xbe95c754	-0.29253638
236	0xbe8991d4	-0.2686907
237	0xbe82f77a	-0.25579435
238	0xbe7b800d	-0.24560566
239	0xbe3c90e6	-0.1841465

conv.bias f4 [20]
0	0xbf107cf6	-0.56440675
1	0x3f0070d0	0.5017214
2	0x3f01896e	0.50600326
3	0x3e4ea46b	0.20179908
4	0xbf17476b	-0.5909335
5	0x3e6f3bf4	0.23362714
6	0xbe20b3d8	-0.15693605
7	0x3f003149	0.50075203
8	0x3f0232cd	0.50858766
9	0xbf0eed99	-0.55831295
10	0xbf10ab1a	-0.5651108
11	0xbf15744a	-0.5838057
12	0xbf0c2e0c	-0.5475776
13	0x3df86d4b	0.12130221
14	0xbe9cd798	-0.30633235
15	0xbf160d3a	-0.5861393
16	0xbf170c83	-0.59003466
17	0xbf0f8edf	-0.5607738
18	0xbf12079f	-0.5704288
19	0x3ee7eed4	0.452994

fc1.weight f4 [100, 600]
0	0x3cfcac0a	0.030843753
1	0x3c9f0923	0.019413536
2	0x3c160189	0.009155639
3	0x3c07493e	0.008257208
4	0x3c7ee76f	0.015558108
5	0x3cc52ae8	0.02406831
6	0x3d033e0d	0.032041598
7	0x3d174829	0.03693405
8	0x3d1ef987	0.038812187
9	0x3d240e6e	0.040052824
10	0x3d2a3859	0.041557644
11	0x3d23f7e4	0.04003133
12	0x3d163a0d	0.036676455
13	0x3d0f95a7	0.03505483
14	0x3cf22562	0.029558841
15	0x3cc54000	0.02407837
16	0x3c8697ef	0.01642987
17	0x3baba3c1	0.005238027
18	0x3c3ba47c	0.01145279
19	0x3cff553a	0.031168569
20	0x3d4ed0ee	0.05049222
21	0x3d931a9e	0.07182811
22	0x3d8c19d2	0.06840862
23	0x3d22971a	0.039694883
24	0x3d1667fe	0.03672027
25	0x3cf7b09f	0.030235587
26	0x3d110d80	0.035413265
27	0x3d5b0b93	0.053477835
28	0x3d5c608a	0.053803004
29	0x3d73328a	0.05937437
30	0xbd072749	-0.03299645
31	0xbca4d31c	-0.020120196
32	0xbc0cfdbb	-0.008605416
33	0xba8bc096	-0.0010662253
34	0xbb258e8a	-0.0025261962
35	0xbc3b3000	-0.011425018
36	0xbcac4a81	-0.02103162
37	0xbce9a455	-0.028520742
38	0xbd0246ea	-0.03180591
39	0xbd02137b	-0.03175686
40	0xbcfe2e20	-0.031027853
41	0xbd01f06e	-0.031723432
42	0xbcf61949	-0.030041354
43	0xbce411be	-0.027840491
44	0xbcc6fd02	-0.024290565
45	0xbc8922e7	-0.016740276
46	0xbc0eec61	-0.008723349
47	0x3a86313e	0.0010238064
48	0x3bbf0023	0.0058288737
49	0xbc1c729f	-0.009548812
50	0xbd0a330f	-0.0337401
51	0xbd74cccf	-0.059765633
52	0xbd95c0ad	-0.073121406
53	0xbd682af8	-0.056681603
54	0xbd02a747	-0.03189781
55	0xbcf3d6eb	-0.029765567
56	0xbcdabdf6	-0.026701909
57	0xbd196180	-0.0374465
58	0xbd3e251a	-0.0464221
59	0xbd833893	-0.06407275
60	0xbd086d13	-0.033307146
61	0xbca774be	-0.02044141
62	0xbc127581	-0.008939148
63	0xbaba2659	-0.0014202102
64	0xbb3df555	-0.002898534
65	0xbc412dff	-0.0117907515
66	0xbcaf25cf	-0.021380333
67	0xbcec639b	-0.02885609
68	0xbd03a599	-0.032140348
69	0xbd03812e	-0.032105617
70	0xbd0093f3	-0.031391095
71	0xbd0379e6	-0.032098673
72	0xbcf93494	-0.030420579
73	0xbce73d22	-0.028227393
74	0xbcca2a56	-0.02467839
75	0xbc8c5947	-0.017132415
76	0xbc1583dc	-0.009125676
77	0x3a1eff90	0.00060653035
78	0x3bb0cb64	0.00539534
79	0xbc243616	-0.010022661
80	0xbd0c2207	-0.03421214
81	0xbd76a56e	-0.06021636
82	0xbd96ad39	-0.07357258
83	0xbd69ebfe	-0.057109825
84	0xbd043037	-0.032272544
85	0xbcf73155	-0.03017489
86	0xbcddd62d	-0.027079666
87	0xbd1b20f1	-0.037873212
88	0xbd3fec82	-0.04685641
89	0xbd844ea5	-0.06460313
90	0xbb802e66	-0.003911781
91	0x3c2609a4	0.010134134
92	0x3cb9aa48	0.022664204
93	0x3d01f6a7	0.031729367
94	0x3cfb0686	0.030642759
95	0x3ca730b2	0.020408962
96	0x3c191892	0.009344237
97	0x39f81197	0.00047315352
98	0xbb3907ae	-0.0028233337
99	0xba86d473	-0.0010286703
100	0x3ada8826	0.0016672655
101	0x3b25aae0	0.0025278851
102	0x3bb2f63c	0.0054614823
103	0x3c0c6587	0.008569128
104	0x3c52ce10	0.012866512
105	0x3cb2b2f7	0.021813853
106	0x3cff1de9	0.031142192
107	0x3d2f1818	0.042747587
108	0x3d455235	0.0481741
109	0x3d019cab	0.03164355
110	0x3bc21e8d	0.005924052
111	0xbcaa6b55	-0.020803133
112	0xbcf8755d	-0.0303294
113	0xbc412320	-0.01178816
114	0x3be9ac04	0.0071311016
115	0x3bd2600b	0.0064201406
116	0x3c12fdda	0.008971656
117	0x3ab610dc	0.0013890523
118	0xbbbbb45d	-0.005728288
119	0xbc825622	-0.015910212
120	0x3d05472f	0.03253859
121	0x3cab87e1	0.020938816
122	0x3c2f10fb	0.010685201
123	0x3c21a671	0.009866343
124	0x3c8d57e6	0.017253827
125	0x3cd36a2c	0.025807463
126	0x3d0a7602	0.033803947
127	0x3d1ea4c7	0.038731363
128	0x3d26affc	0.040695176
129	0x3d2bedaa	0.0419747
130	0x3d32476f	0.043525156
131	0x3d2c1466	0.04201164
132	0x3d1e5047	0.038650777
133	0x3d17b141	0.037034277
134	0x3d00f756	0.031485878
135	0x3cd4a8d7	0.025959415
136	0x3c9569db	0.018238952
137	0x3be3de4b	0.0069539896
138	0x3c5c30e5	0.013439392
139	0x3d092416	0.03348168
140	0x3d58e696	0.05295428
141	0x3d98e781	0.07466031
142	0x3d9197c8	0.07109028
143	0x3d2a9d87	0.041654136
144	0x3d1edf4c	0.03878717
145	0x3d0489e2	0.032358058
146	0x3d1a526a	0.037676252
147	0x3d653b9f	0.055965062
148	0x3d66eb44	0.05637671
149	0x3d7ec2a0	0.062197328
150	0xbc0fd99b	-0.0087799085
151	0x3b9e7389	0.00483555
152	0x3c8b8fd3	0.017036354
153	0x3cd2d0ae	0.025734272
154	0x3ccb9961	0.02485341
155	0x3c794fa0	0.015216738
156	0x3b97824b	0.0046236864
157	0xbb8036bd	-0.0039127753
158	0xbbee0303	-0.0072635426
159	0xbbc427a5	-0.0059861713
160	0xbb7cb2e2	-0.003855877
161	0xbb620321	-0.0034486728
162	0xba780d25	-0.0009462408
163	0x3af4c394	0.001867401
164	0x3bbf10c8	0.005830858
165	0x3c68f19b	0.0142177595
166	0x3cbc71ed	0.023003543
167	0x3d0b69d9	0.03403649
168	0x3d213730	0.03935927
169	0x3cc45811	0.023967775
170	0xba37051d	-0.0006981658
171	0xbcdf25aa	-0.02723964
172	0xbd1d6dd4	-0.03843482
173	0xbcac9d6b	-0.021071156
174	0xba8029c3	-0.0009778071
175	0xba13ece0	-0.0005642902
176	0x3b1a6522	0.0023558815
177	0xbbbed05f	-0.0058231796
178	0xbc5f7e59	-0.0136409635
179	0xbccca517	-0.024981065
180	0xbb77e7b6	-0.003782732
181	0xbc67da4b	-0.014151166
182	0xbcd06b6f	-0.025441853
183	0xbcdf1371	-0.02723095
184	0xbca269cf	-0.019825844
185	0xbc334455	-0.010941585
186	0xbb2611b0	-0.0025340132
187	0x3b24167a	0.002503781
188	0x3b4edd4c	0.0031565009
189	0x3b6a97a9	0.0035795963
190	0x3b8a7f71	0.004226618
191	0x3b046ef9	0.0020207746
192	0xbb04ef5e	-0.0020284276
193	0xbb855aa0	-0.004069641
194	0xbc1e68f9	-0.009668582
195	0xbc7c29d4	-0.015390832
196	0xbcbdcd39	-0.023169147
197	0xbd0de11e	-0.034638517
198	0xbcfa472d	-0.030551517
199	0xbc406191	-0.011742012
200	0x3bf2550f	0.0073953937
201	0x3cd16705	0.025561819
202	0x3ca81580	0.020518064
203	0xbb0957af	-0.0020956805
204	0xbb65b3dd	-0.0035049834
205	0xbc04ad87	-0.008098013
206	0xbba3a4ea	-0.0049940245
207	0x3c1a1ace	0.009405805
208	0x3c122e1b	0.008922125
209	0x3c37f0b9	0.011226826
210	0xbd070027	-0.03295913
211	0xbca4948b	-0.020090362
212	0xbc0c891d	-0.008577612
213	0xba86b0fb	-0.0010276133
214	0xbb212ccc	-0.0024593351
215	0xbc39d1a0	-0.011341482
216	0xbcab9d62	-0.02094907
217	0xbce90bcb	-0.028448006
218	0xbd01ffa2	-0.03173793
219	0xbd01c9f4	-0.031686738
220	0xbcfd9558	-0.030955002
221	0xbd01a286	-0.031649135
222	0xbcf584ce	-0.029970553
223	0xbce3827b	-0.027772179
224	0xbcc67a1d	-0.02422815
225	0xbc88b8d6	-0.0166897
226	0xbc0e3f5f	-0.008682101
227	0x3a8bd267	0.0010667563
228	0x3bc0a835	0.005879427
229	0xbc1a70ee	-0.009426339
230	0xbd09843b	-0.03357337
231	0xbd742e6a	-0.059614576
232	0xbd958a10	-0.07301724
233	0xbd67f997	-0.05663451
234	0xbd02a0b3	-0.031891536
235	0xbcf33c90	-0.029691964
236	0xbcd9cab3	-0.026585912
237	0xbd18eaa4	-0.037333146
238	0xbd3db840	-0.046318293
239	0xbd82e6e1	-0.06391693
240	0xbd093e2b	-0.033506554
241	0xbca8ff1e	-0.020629462
242	0xbc156033	-0.009117174
243	0xbad0b39a	-0.0015922666
244	0xbb48ed00	-0.003065884
245	0xbc43f2d3	-0.011959749
246	0xbcb096c2	-0.021556262
247	0xbcede2bd	-0.029038781
248	0xbd046d52	-0.03233082
249	0xbd0450b2	-0.03230352
250	0xbd016b3c	-0.031596407
251	0xbd0456ea	-0.03230945
252	0xbcfaf996	-0.03063659
253	0xbce902b5	-0.028443674
254	0xbccbf2f6	-0.024896126
255	0xbc8e20ab	-0.017349562

fc1.bias f4 [100]
0	0xbdae52fb	-0.08511921
1	0xb9eaf4db	-0.0004481439
2	0x3d3f03b1	0.04663438
3	0xbc3cafb1	-0.0115164975
4	0x3c4ab34b	0.012371848
5	0xbca315a5	-0.019907782
6	0xbc060aab	-0.008181254
7	0x3ba32ac9	0.0049794656
8	0xbca0a4c2	-0.019609813
9	0xbc427715	-0.011869212
10	0x3d4eb57e	0.050466053
11	0x3b291fac	0.0025806231
12	0xbc08d200	-0.008350849
13	0x3bab63a5	0.0052303844
14	0xbbd4490f	-0.006478436
15	0xbd2d3489	-0.04228643
16	0xbbe64ca5	-0.0070281797
17	0x3af18c7f	0.0018428712
18	0xbd3a9445	-0.045551557
19	0x3d22e99b	0.039773565
20	0x3d39048c	0.045170352
21	0x3cf218af	0.029552786
22	0xbc6705e7	-0.014100528
23	0xbb5c6355	-0.0033628542
24	0x3c571a56	0.013128838
25	0x3bde4dce	0.0067841774
26	0x3bf7bc4c	0.0075602885
27	0xbd5ee095	-0.054413397
28	0xbd02eb52	-0.0319627
29	0xbbcec7ba	-0.0063104304
30	0x3be47919	0.006972444
31	0x3d348514	0.044072226
32	0xbca8915c	-0.020577125
33	0x3cd42851	0.02589813
34	0x3c67afdc	0.014141049
35	0xbd18b9ae	-0.037286453
36	0xbb9bfc1d	-0.004760279
37	0xbc3f2987	-0.011667616
38	0x3c002e4e	0.00782354
39	0x3c08135f	0.0083054
40	0xbd27a248	-0.040926248
41	0xbc5794e3	-0.013158056
42	0xbc765fd2	-0.015037494
43	0xbca807e8	-0.020511582
44	0x3d729825	0.059227128
45	0x3bc984df	0.0061498727
46	0x3d143bfb	0.036190014
47	0xbc90dcc6	-0.017683398
48	0xbc27a6cb	-0.010232638
49	0xbbe85087	-0.0070896777
50	0xbc63d76c	-0.013906341
51	0x3bef0bc9	0.007295106
52	0x3c0a2525	0.0084317075
53	0x3c272250	0.010201052
54	0x3bfd0bb3	0.007722342
55	0x3bf00d07	0.0073257717
56	0xbc9cb806	-0.019130718
57	0x3c8462c1	0.01616037
58	0xbd0e3eb8	-0.034727782
59	0xbc32924a	-0.010899136
60	0xbc5e9861	-0.013586135
61	0xbc17a9c0	-0.00925678
62	0xbbfc512d	-0.0077001066
63	0x3b4bc7ee	0.003109451
64	0xbca2af52	-0.01985899
65	0x3b445f88	0.0029964168
66	0xbd61bd33	-0.055112075
67	0xbbfd9599	-0.0077387807
68	0x3b5d5d45	0.0033777517
69	0x3bef95d3	0.0073115616
70	0xbb66be3e	-0.0035208608
71	0x3c5b0b0c	0.013369333
72	0x3c43ffcf	0.011962845
73	0x3cd4c3f3	0.025972342
74	0x3d57ed75	0.05271669
75	0x3b6c6416	0.0036070398
76	0xbc6c02a5	-0.014404927
77	0xbbf9195a	-0.007601899
78	0x3d1739d8	0.0369204
79	0x3c0eb7e9	0.00871084
80	0x3d15a68b	0.03653578
81	0xbcfcef6e	-0.030875888
82	0x3c530375	0.012879242
83	0xbc991b0e	-0.018689658
84	0xbb489518	-0.0030606445
85	0xbc13b8fa	-0.00901627
86	0xbc019721	-0.007909567
87	0xbb8deb97	-0.004331063
88	0x3cb36132	0.021896932
89	0x3c36da1c	0.0111604
90	0xbd8fb0c8	-0.0701614
91	0x3d64eb9a	0.05588875
92	0x3cab9a06	0.020947468
93	0x3c383ec4	0.011245433
94	0xbca8f97d	-0.020626778
95	0xbce68fe5	-0.028144786
96	0xbb675ecc	-0.0035304306
97	0x3b09ac07	0.0021007077
98	0xbdb5385a	-0.08848639
99	0xbbe62b0d	-0.007024175

fc2.weight f4 [9, 100]
0	0xbe4757cb	-0.19467084
1	0x3da0230a	0.07819183
2	0x3e7f4ad1	0.24930884
3	0xbdcb9ecf	-0.099424
4	0x3dccd913	0.10002341
5	0xbe05ce2a	-0.13066927
6	0xbe8966e2	-0.26836306
7	0x3de9bae6	0.11412601
8	0xbe9c75a7	-0.30558512
9	0xbe577aad	-0.21042891
10	0x3e87c577	0.2651784
11	0x3dbe5b93	0.0929481
12	0xbe72fdba	-0.23729602
13	0xbd5fadd5	-0.05460914
14	0xbd71492c	-0.058907673
15	0xbe6ed309	-0.23322691
16	0xbce8b059	-0.028404402
17	0x3c469739	0.012121015
18	0xbe7ce25b	-0.24695723
19	0x3e66f408	0.22554028
20	0x3e7db34b	0.24775426
21	0x3e3a8a74	0.18216878
22	0x3ca6270e	0.020282295
23	0xbdcef8d8	-0.10106057
24	0x3de23a14	0.11046234
25	0x3d6e8b37	0.058238234
26	0x3d795127	0.06086841
27	0xbe5ca8fe	-0.2154884
28	0xbed5daa8	-0.41768384
29	0xbd7cd989	-0.061730895
30	0xbd4cde7a	-0.050016858
31	0x3c40ce8d	0.011767996
32	0xbe0850ea	-0.13312116
33	0x3e323aa2	0.17405179
34	0x3ddfdd88	0.109309256
35	0x3c87cf78	0.016578421
36	0x3d268d0f	0.040661868
37	0xbcae3944	-0.02126754
38	0x3d906e2f	0.07052266
39	0x3e8110fb	0.25208268
40	0xbd3cb01d	-0.046066392
41	0xbe100188	-0.14063084
42	0xbde95e04	-0.11394885
43	0xbdcdbf59	-0.10046262
44	0x3e93e20e	0.28883404
45	0x3d519b7c	0.051173672
46	0x3e562556	0.2091268
47	0xbdffc4ce	-0.124887094
48	0xbd8af8ea	-0.06785758
49	0xbd6f5923	-0.058434617
50	0x3ebb928d	0.36635247
51	0x3e9423d8	0.28933597
52	0x3e807c62	0.25094897
53	0x3dbe4fc0	0.09292555
54	0x3d70cc10	0.05878836
55	0x3e92bc07	0.28659078
56	0xbe026403	-0.12733464
57	0x3daa0407	0.083015494
58	0xbe4f7eb1	-0.20263173
59	0xbdbc943d	-0.09207962
60	0xbe661752	-0.22469833
61	0xbe613c74	-0.21995717
62	0xbd711026	-0.05885329
63	0x3f050ef8	0.51975965
64	0xbe069576	-0.13142952
65	0x3d32459a	0.04352341
66	0xbe856719	-0.2605522
67	0x3dafe7e8	0.085891545
68	0x3dd4ee0b	0.103969656
69	0x3d7d96a5	0.061911244
70	0xbdd5c028	-0.104370415
71	0x3d146af8	0.036234826
72	0x3dc8e8d7	0.09810036
73	0x3c0a659d	0.008447078
74	0x3cc3535a	0.023843456
75	0x3dd6df57	0.104918174
76	0xbe06d18a	-0.1316587
77	0xbe863e11	-0.26219228
78	0x3e59ca73	0.21268634
79	0x3d79c800	0.06098175
80	0xbce9f79f	-0.028560458
81	0xbe436f95	-0.19085534
82	0x3e0f4021	0.13989307
83	0x3d822193	0.0635406
84	0xbdd6cd91	-0.104884274
85	0xbda34c52	-0.07973541
86	0xbd71f6ec	-0.059073374
87	0xbddfc9c8	-0.109271586
88	0x3db58ac8	0.08864361
89	0x3dd92777	0.106032304
90	0xbe1b05cf	-0.15138935
91	0xbcbece64	-0.023291774
92	0x3db9c77a	0.0907125
93	0xbe2b4c3f	-0.16728304
94	0xbe0b11be	-0.13580987
95	0xbe36cb1e	-0.1785092
96	0xbdd5fff1	-0.104492076
97	0x3dc6ad26	0.09700994
98	0xbe49d29c	-0.19709247
99	0xbd7522f3	-0.059847783
100	0x3ed86368	0.4226334
101	0xbd59e428	-0.053196102
102	0x3dc8c48b	0.098031126
103	0x3dbc73f6	0.09201805
104	0xbbfc11ea	-0.007692565
105	0xbc64ff03	-0.013976815
106	0x3d31d528	0.043416172
107	0xbd017962	-0.0316099
108	0x3e8d1ecb	0.27562556
109	0x3e5fbb27	0.21848737
110	0x3e031230	0.12799907
111	0xbd068a6b	-0.03284685
112	0x3d6e42fb	0.058169346
113	0x3da9b30a	0.08286102
114	0x3d83ab7b	0.06429192
115	0xbd848871	-0.06471337
116	0x3ea0b6f6	0.31389588
117	0xbd6cc430	-0.057804286
118	0xbdb13e75	-0.08654491
119	0x3d3d99e6	0.046289347
120	0x3da2231a	0.07916851
121	0x39e85a54	0.00044317788
122	0x3f21cdd9	0.63204724
123	0x3d08a799	0.03336296
124	0xbdd6f49f	-0.104958765
125	0xbd8742ef	-0.066045634
126	0xbd401139	-0.046891425
127	0x3e793f12	0.24340466
128	0xbf01d8c0	-0.5072136
129	0x3d76de53	0.06027062
130	0x3da62e31	0.08114279
131	0xbe770ab1	-0.24125172
132	0xbc5f1e30	-0.013618037
133	0xbc754a68	-0.014971353
134	0xb93546e1	-0.0001728791
135	0xbdf416e0	-0.119184256
136	0xbe05599d	-0.13022466
137	0xbe1bb157	-0.15204369
138	0xbd0043ee	-0.031314783
139	0xbd56cd0b	-0.052441638
140	0x3e3c3029	0.18377747
141	0x3db1fdff	0.08691024
142	0xbb360ed6	-0.002777984
143	0xbd889aed	-0.06670175
144	0xbd71aaf0	-0.05900091
145	0xbd2f2ed5	-0.042769272
146	0x3cee034f	0.029054312
147	0xbc09641f	-0.008385687
148	0x3dbaeac4	0.09126809
149	0x3d8a4059	0.067505546
150	0xbd8582da	-0.065190986
151	0xbc27f3ee	-0.010251028
152	0xbd649c03	-0.055812847
153	0xbc18993b	-0.009313877
154	0xbd928721	-0.0715468
155	0xbc4596a1	-0.0120598385
156	0xbc744979	-0.014910095
157	0xbea060d8	-0.31323886
158	0xbcb173d1	-0.02166167
159	0x3c802841	0.015644195
160	0xbe2e80a3	-0.17041259
161	0x3d9f81c4	0.07788423
162	0x3d91ec07	0.07125097
163	0x3e9ad0e8	0.30237508
164	0xbc439774	-0.011937965
165	0xbecd35a6	-0.40079993
166	0x3deea17b	0.11651894
167	0x3f38fe9b	0.722635
168	0xbd182293	-0.037142348
169	0xbd3636db	-0.044485908
170	0x3d12acc2	0.035809286
171	0xbee95663	-0.4557372
172	0xbc1de73d	-0.009637651
173	0x3e294a52	0.16532257
174	0x3eba0866	0.36334532
175	0xbd119eee	-0.035551958
176	0x3dd852fd	0.10562704
177	0x3d03faf8	0.032221764
178	0x3d019949	0.031640325
179	0xbda1d7e2	-0.079025045
180	0x3ddbeab5	0.10738126
181	0xb983a934	-0.00025112333
182	0xbdadc4b5	-0.084847845
183	0x3f40c84a	0.75305617
184	0x3d2eaa95	0.04264315
185	0x3cde0c72	0.027105544
186	0x3d95126f	0.072789066
187	0x3d0488b0	0.032356918
188	0xbe313b8f	-0.17307876
189	0xbdb0ec7a	-0.08638854
190	0x3e908706	0.28228015
191	0xbe8dd53d	-0.2770175
192	0xbefe6561	-0.4968672
193	0xbf73cc05	-0.95233184
194	0x3a5126b7	0.0007978486
195	0x3ba892bd	0.0051444457
196	0x3d12d0ce	0.035843663
197	0xbd4ba33e	-0.049716227
198	0x3ee9e09f	0.45679185
199	0x3d3132f2	0.043261476
200	0x3e1a998c	0.15097636
201	0x3da2fffc	0.079589814
202	0x3b8c5db5	0.0042836317
203	0xbd340534	-0.043950275
204	0x3d59d4fc	0.053181633
205	0xbd169f87	-0.03677323
206	0xbe65a9f5	-0.22428115
207	0x3d8bf5e0	0.06834006
208	0x3dff3cdf	0.12462782
209	0x3dc2ac2f	0.09505498
210	0x3b722c94	0.003695284
211	0x3d7adc9e	0.061245553
212	0xbe3a2a74	-0.18180257
213	0xbdcc8569	-0.099863835
214	0xbcbb54d8	-0.022867605
215	0xbbab16f7	-0.0052212435
216	0xbdd9e493	-0.106393
217	0x3db07be7	0.086173825
218	0xbb752180	-0.0037404
219	0x3b96bab1	0.004599892
220	0x3b45a931	0.003016066
221	0x3c28a585	0.010293369
222	0xbde6ef3c	-0.11276099
223	0xbd79d0b0	-0.060990036
224	0x3d65926d	0.056047846
225	0x3cb51ea1	0.022109332
226	0x3d20da1d	0.03927051
227	0x3db8394a	0.08995302
228	0x3dd9f044	0.1064153
229	0xbcd46d49	-0.025931017
230	0xbdc1f275	-0.09470073
231	0x3e8edf46	0.2790472
232	0xbd0ff400	-0.035144806
233	0x3c715dab	0.014731805
234	0x3d51ad54	0.05119069
235	0x3c3e93cd	0.011631918
236	0x3de72711	0.11286748
237	0xbd304716	-0.043036543
238	0x3d3bb70a	0.045828857
239	0x3e4e2ef5	0.201351
240	0xbe8be4f0	-0.27323103
241	0xbdcbe962	-0.099566236
242	0xbd4c1e3d	-0.049833525
243	0xbd186303	-0.0372038
244	0xbca8793f	-0.020565627
245	0x3d133bd6	0.035945736
246	0x3bb2f596	0.005461405
247	0xbd31ed96	-0.04343947
248	0xbcb987ee	-0.022647824
249	0xbcb4aa4d	-0.022053862
250	0xbe09ac67	-0.13444673
251	0x3e80dadd	0.2516698
252	0x3e4c99ba	0.19980517
253	0x3d5d9e90	0.054106295
254	0x3cb07b27	0.021543099
255	0x3e7e6a06	0.24845132

fc2.bias f4 [9]
0	0x3ddacdc0	0.10683775
1	0xbbaa4df0	-0.005197279
2	0xbd9c9c6c	-0.076470226
3	0x3d67f7ac	0.056632683
4	0x3c827749	0.01592602
5	0x3c88369e	0.016627606
6	0xbde3e298	-0.11127204
7	0xbd3d5c6c	-0.04623072
8	0x3d067c90	0.032833636
