Pavia_model/India_SpecPOOL.pt (torch, 675216 bytes, 71 tensors)

pos_embedding f4 [1, 104, 64]
0	0xbc7806e1	-0.015138359
1	0x3c25417d	0.010086414
2	0x3c2b8f39	0.010471159
3	0x3bfc4a0e	0.0076992577
4	0x3bfb62aa	0.007671674
5	0x3b6101ae	0.0034333277
6	0x3c8a5511	0.016886266
7	0xbc8c264f	-0.01710811
8	0xbc4aa26c	-0.012367826
9	0x3c400eaa	0.011722246
10	0xbb264512	-0.002537076
11	0xb9e76d94	-0.00044141395
12	0x3c0bcd69	0.00853286
13	0xbc1755ec	-0.009236794
14	0xbb69810a	-0.0035629892
15	0xbbf25c94	-0.00739629
16	0x3c606d50	0.013697937
17	0x3c37bfc9	0.011215159
18	0xbc14db72	-0.009085523
19	0xbc57ba54	-0.013166983
20	0x3c9c2768	0.01906176
21	0xbbdfeaba	-0.0068334015
22	0xbb982daf	-0.004644118
23	0x395842e8	0.0002062429
24	0xbd0776ac	-0.03307216
25	0x3c1cd9c4	0.009573404
26	0x3c0fb25e	0.008770553
27	0xbc49f7c0	-0.012327135
28	0x3be8e491	0.0071073254
29	0x3c0e436b	0.008683066
30	0xbc707134	-0.014675427
31	0xbc1a9990	-0.009436026
32	0xbbec72a2	-0.0072158137
33	0x3a18522a	0.0005810583
34	0xbc0464c2	-0.008080663
35	0x3ad2ad88	0.0016073445
36	0x3ca4fa20	0.0201388
37	0x3ca15cec	0.019697629
38	0x3c3b2b6b	0.011423926
39	0x3cb481f9	0.022034632
40	0xbc0f249c	-0.008736756
41	0x3c742a99	0.014902734
42	0xbbd6780e	-0.0065450734
43	0xbd5b6a7e	-0.053568356
44	0xbc799101	-0.0152323255
45	0xbc159829	-0.009130516
46	0x3bcfaf39	0.006338027
47	0x3ca0395e	0.019558605
48	0xbd10bcc7	-0.035336282
49	0xbb87f43d	-0.0041489885
50	0xbb8234b7	-0.0039735693
51	0x3c731c41	0.014838279
52	0x3bba2222	0.0056803385
53	0x3b630e48	0.0034645963
54	0x3a11c9ef	0.00055614015
55	0xba3c5869	-0.0007184805
56	0xbc99fd34	-0.018797494
57	0xbb95536a	-0.004557063
58	0xb945361e	-0.00018807544
59	0x3b848040	0.004043609
60	0xbd52fb8e	-0.051509432
61	0xbc391e7d	-0.011298773
62	0x3bc662df	0.006054267
63	0x3c964568	0.018343642
64	0xbaf2b775	-0.0018517809
65	0x3be7a5af	0.0070693116
66	0xbc4a6de7	-0.012355304
67	0xbc7cca90	-0.015429154
68	0xbb29a2ab	-0.0025884311
69	0xbb83a36b	-0.0040172837
70	0x3bb1db10	0.0054277256
71	0xbbc20200	-0.0059206486
72	0xbbc6e372	-0.006069594
73	0x3c16356f	0.009168013
74	0x3c2c2bcc	0.010508489
75	0x3b9a432b	0.004707714
76	0x3b789919	0.003793305
77	0xbb8d577c	-0.0043134075
78	0xb8cb3ca4	-9.6910895e-05
79	0x3aad3a61	0.0013216251
80	0xbb4937f5	-0.003070352
81	0xbc471346	-0.012150591
82	0xbc375b8f	-0.011191263
83	0x3c2bc73a	0.010484511
84	0x3adeccf2	0.0016998334
85	0x39dca8e2	0.00042087497
86	0x3b1553e6	0.0022785603
87	0xbb01cc5f	-0.0019805653
88	0xbc2a0579	-0.010377281
89	0xbb44e675	-0.003004459
90	0xbb17d3a5	-0.0023166921
91	0xbbad0a92	-0.005280801
92	0x3aafafa0	0.0013403781
93	0x39afc0f5	0.00033522365
94	0xbde75f39	-0.11297459
95	0xbb92876a	-0.004471709
96	0x3b945f36	0.0045279516
97	0xbb11d3d9	-0.0022251515
98	0xbc6f07d1	-0.014589266
99	0x3bf9cba4	0.007623153
100	0x3c012e9a	0.007884646
101	0x3b2a70d1	0.0026007185
102	0x3b98c143	0.0046617105
103	0x3d76d30f	0.060259875
104	0x3bf1359d	0.0073611275
105	0x3abdeb97	0.0014489767
106	0xbc133562	-0.008984895
107	0xbbba9740	-0.0056943
108	0xbc8ec254	-0.017426647
109	0xbc34b885	-0.011030321
110	0xbab7cb83	-0.0014022443
111	0xbc3f45b8	-0.011674337
112	0xbc8443b3	-0.016145563
113	0xbc04d127	-0.008106506
114	0xbc4935d0	-0.012280896
115	0xbb785bbd	-0.0037896477
116	0x3c66cdeb	0.014087181
117	0xbc57ce93	-0.01317181
118	0xbc62b06c	-0.013836008
119	0xb9c8cbf7	-0.00038298938
120	0xbbdcc754	-0.006737629
121	0xbc8828e1	-0.016621055
122	0x3c0d168d	0.008611334
123	0x3b080859	0.0020756929
124	0x3cd7440e	0.026277568
125	0xbc3beb4d	-0.011469674
126	0x3b91f636	0.0044543995
127	0x3e227532	0.15865019
128	0x3b886e9a	0.0041635754
129	0x3b43cf7f	0.0029878316
130	0xbbd64a43	-0.0065396144
131	0x3d00a5e9	0.031408224
132	0xbada51fc	-0.0016656513
133	0x3bf6ca82	0.007531465
134	0xbc332bd4	-0.010935742
135	0x39e79fcd	0.00044178814
136	0x3a450d69	0.0007516952
137	0x3c0f4972	0.008745538
138	0xbc11c657	-0.008897386
139	0x3c613bcb	0.013747166
140	0xbbf99d44	-0.0076176245
141	0xbc382314	-0.011238832
142	0xbabf959f	-0.0014616734
143	0xbaf14ffd	-0.0018410679
144	0xbc3142fb	-0.010819192
145	0x3bcba8af	0.006215177
146	0xbb42a407	-0.0029699819
147	0xbbf295ee	-0.007403127
148	0x3c039a96	0.008032462
149	0x3c095235	0.008381416
150	0xbc39bfb5	-0.01133721
151	0xbb0cdf10	-0.002149526
152	0xbc4fc64a	-0.012681553
153	0x3bb932c0	0.005651802
154	0x3b8d8ecb	0.0043200008
155	0xbc602ec7	-0.013683028
156	0xbb6dfbb9	-0.0036313368
157	0x3ad66c3e	0.0016359163
158	0x3d83de2b	0.064388596
159	0xbb702740	-0.0036644489
160	0xbb2ac963	-0.0026059977
161	0x3c7bfba2	0.015379818
162	0x3b39f336	0.0028373725
163	0x3b0a9f9f	0.002115227
164	0xbd515cc4	-0.05111386
165	0x3c29886f	0.01034747
166	0xbc30d880	-0.010793805
167	0xbd9d3682	-0.07676412
168	0xbc97d184	-0.018532522
169	0xbc1a8142	-0.0094302315
170	0x3c4b7c29	0.012419739
171	0xbd285e50	-0.04110557
172	0xbc383daa	-0.011245171
173	0x3c280211	0.010254399
174	0xbb550152	-0.0032502008
175	0xbb568436	-0.0032732612
176	0xbcae4a43	-0.021275645
177	0x3bd39c70	0.006457858
178	0xb8e8d088	-0.00011101464
179	0x3a1aedca	0.0005910067
180	0xbb366b51	-0.0027834962
181	0x3c86c513	0.016451394
182	0x3cc858e0	0.024456441
183	0xbc40b9da	-0.01176306
184	0x3c45daad	0.012076062
185	0x3ba290f7	0.004961129
186	0x3c16f08d	0.009212625
187	0x3b8105d4	0.0039374623
188	0x3cb41a14	0.021985091
189	0x3c696140	0.014244378
190	0xbba8983c	-0.005145101
191	0xbc6ebb7a	-0.014571065
192	0x3bf747b0	0.0075463876
193	0xbc38a613	-0.011270064
194	0xbc005edb	-0.007835115
195	0x3c0285b6	0.0079664495
196	0xba8a37a2	-0.0010545144
197	0x3ba9a3b7	0.005176987
198	0x3c053b8b	0.008131872
199	0x3be4422e	0.006965897
200	0xbbaf53cc	-0.0053505655
201	0xbbe60b5a	-0.007020396
202	0x3b9d1346	0.0047935573
203	0x3bdf18a4	0.0068083573
204	0x3c43e007	0.011955268
205	0x3b81d9ae	0.003962717
206	0xbc07bdf7	-0.008285037
207	0x3ba823e2	0.0051312307
208	0x3bf479e3	0.007460819
209	0x3c3f841b	0.011689211
210	0x3c3065cf	0.010766461
211	0xbad4f4ad	-0.0016247235
212	0xbd360854	-0.044441536
213	0x3c4e2178	0.012581222
214	0xbad22200	-0.0016031861
215	0x3b022876	0.0019860542
216	0xba8ac248	-0.0010586465
217	0x3bc7a1b7	0.006092276
218	0x38b9bcf3	8.856682e-05
219	0xbc2b0f96	-0.010440728
220	0xbb85a614	-0.004078636
221	0x3b4bae74	0.0031079324
222	0x3da2df8f	0.07952797
223	0x3c23d550	0.009999588
224	0x3c043c9c	0.008071091
225	0x3b1d64c7	0.0024016367
226	0x3b94b241	0.004537851
227	0x3b886d6f	0.004163436
228	0xbd682897	-0.056679334
229	0xbb6dfd8b	-0.0036314453
230	0x3c234448	0.00996501
231	0xbdc1fb67	-0.09471779
232	0x3b799276	0.0038081682
233	0x3bd45778	0.0064801537
234	0xbb92e9d2	-0.00448344
235	0xbb904d5d	-0.0044037537
236	0x3a23ceb1	0.0006248756
237	0x3a517476	0.00079900713
238	0x3c16ba3c	0.009199675
239	0x3c59783d	0.013273296
240	0x3c35bbd2	0.011092143
241	0x3a735e2f	0.0009283749
242	0x394e1030	0.00019651721
243	0x3ca182c3	0.019715672
244	0x3c2e2b5d	0.010630456
245	0x3b29e151	0.0025921653
246	0x3c27601c	0.010215785
247	0x3bac5c11	0.0052599986
248	0x3bd46bb6	0.0064825667
249	0x3c31b4d1	0.010846333
250	0x3b5754f8	0.0032857042
251	0x3b888d4d	0.004167235
252	0x3d3c9928	0.0460445
253	0x3aa80d61	0.001282137
254	0xbb295ec7	-0.0025843845
255	0xbe37fb65	-0.17966993

cls_token f4 [1, 1, 64]
0	0xbc7806e2	-0.01513836
1	0x3c25417f	0.010086416
2	0x3c2b8f36	0.010471156
3	0x3bfc4a0b	0.0076992563
4	0x3bfb62ae	0.0076716756
5	0x3b6101b0	0.0034333281
6	0x3c8a550e	0.01688626
7	0xbc8c2650	-0.017108113
8	0xbc4aa267	-0.012367821
9	0x3c400eaa	0.011722246
10	0xbb264500	-0.0025370717
11	0xb9e76d38	-0.00044141128
12	0x3c0bcd65	0.008532857
13	0xbc1755eb	-0.009236793
14	0xbb698104	-0.0035629878
15	0xbbf25c96	-0.007396291
16	0x3c606d57	0.013697944
17	0x3c37bfc4	0.011215154
18	0xbc14db75	-0.009085526
19	0xbc57ba5c	-0.01316699
20	0x3c9c2769	0.019061761
21	0xbbdfeabc	-0.0068334024
22	0xbb982db7	-0.0046441215
23	0x395842d4	0.0002062426
24	0xbd0776ac	-0.03307216
25	0x3c1cd9bf	0.009573399
26	0x3c0fb25c	0.0087705515
27	0xbc49f7b9	-0.012327128
28	0x3be8e490	0.007107325
29	0x3c0e436a	0.008683065
30	0xbc707136	-0.014675429
31	0xbc1a998d	-0.009436023
32	0xbbec72a7	-0.007215816
33	0x3a185258	0.000581061
34	0xbc0464ce	-0.008080674
35	0x3ad2ad9a	0.0016073466
36	0x3ca4fa38	0.020138845
37	0x3ca15cec	0.019697629
38	0x3c3b2b6a	0.011423925
39	0x3cb481f6	0.022034626
40	0xbc0f24a2	-0.008736761
41	0x3c742a97	0.014902732
42	0xbbd6780e	-0.0065450734
43	0xbd5b6a84	-0.053568378
44	0xbc7990fd	-0.015232322
45	0xbc15982d	-0.00913052
46	0x3bcfaf36	0.0063380254
47	0x3ca0395c	0.019558601
48	0xbd10bcc7	-0.035336282
49	0xbb87f441	-0.0041489904
50	0xbb8234bd	-0.003973572
51	0x3c731c43	0.014838281
52	0x3bba2218	0.005680334
53	0x3b630e48	0.0034645963
54	0x3a11ca16	0.0005561424
55	0xba3c5862	-0.0007184801
56	0xbc99fd32	-0.01879749
57	0xbb955366	-0.004557061
58	0xb94536b6	-0.00018807765
59	0x3b848038	0.004043605
60	0xbd52fb93	-0.05150945
61	0xbc391e84	-0.011298779
62	0x3bc662e3	0.0060542687
63	0x3c964564	0.018343635

conv_pool.conv.weight f4 [3, 1, 1, 3]
0	0xbefc182d	-0.49237195
1	0xbf0085d9	-0.50204235
2	0xbf008ff4	-0.50219655
3	0x80000229	-7.75e-43
4	0x00000073	1.61e-43
5	0x00000020	4.5e-44
6	0x3f1a949d	0.60383016
7	0x3fc32e7e	1.5248563
8	0x3ebb7cdb	0.36618695

conv_pool.conv.bias f4 [3]
0	0x3e185575	0.1487635
1	0x92545a96	-6.700706e-28
2	0xbdb7895c	-0.08961746

patch_to_embedding.weight f4 [64, 3]
0	0xbcba3626	-0.022730898
1	0x00000278	8.86e-43
2	0x3deb6d5e	0.114954695
3	0xbc995973	-0.01871941
4	0x80000abc	-3.851e-42
5	0x3df6c1d5	0.12048689
6	0xbc2542af	-0.010086699
7	0x00000182	5.41e-43
8	0x3e0972da	0.13422719
9	0xbc715fc1	-0.014732302
10	0x000001a9	5.96e-43
11	0x3dfab7eb	0.12242111
12	0xbc890b8a	-0.016729135
13	0x0000065a	2.279e-42
14	0x3dfffdc3	0.12499573
15	0xbc38f039	-0.011287742
16	0x000001a6	5.91e-43
17	0x3dea1cd4	0.1143128
18	0xbcef07b2	-0.029178474
19	0x800000d2	-2.94e-43
20	0x3def94e8	0.116983235
21	0xbaf6e391	-0.0018836131
22	0x800000e6	-3.22e-43
23	0x3e03d100	0.12872696
24	0xbc59c736	-0.0132921245
25	0x00000763	2.65e-42
26	0x3e02420e	0.1272051
27	0xbd251ea0	-0.04031241
28	0x800003d0	-1.368e-42
29	0x3e027a12	0.12741879
30	0xbcaff853	-0.021480715
31	0x00000c32	4.375e-42
32	0x3df9a84e	0.12190305
33	0xbca557d9	-0.02018349
34	0x0000026e	8.72e-43
35	0x3e013210	0.12616754
36	0xbcfb905c	-0.030708484
37	0x00000405	1.442e-42
38	0x3dfe1480	0.12406254
39	0xbc8beed9	-0.017081665
40	0x000004f1	1.773e-42
41	0x3e053f40	0.13012409
42	0xbc9ecf38	-0.019385919
43	0x80000522	-1.841e-42
44	0x3e045dcd	0.12926407
45	0xbc8acc87	-0.01694323
46	0x800008d7	-3.171e-42
47	0x3e07b554	0.13252765
48	0xbcc5c00d	-0.024139429
49	0x00000711	2.535e-42
50	0x3dffd1d0	0.124911904
51	0xbcacd22b	-0.02109631
52	0x80000687	-2.342e-42
53	0x3e01dfd2	0.12683037
54	0xbc3cc3f0	-0.0115213245
55	0x8000049a	-1.651e-42
56	0x3df33857	0.1187598
57	0xbd014b82	-0.03156615
58	0x00000d7b	4.836e-42
59	0x3df62e14	0.120205075
60	0xbd3689c8	-0.044564992
61	0x800003bf	-1.344e-42
62	0x3dadb291	0.084813245
63	0xbc8d040d	-0.017213846
64	0x800003a9	-1.313e-42
65	0x3df1b4fc	0.11802098
66	0xbcb1000e	-0.021606471
67	0x0000008e	1.99e-43
68	0x3dffa428	0.12482482
69	0xbcf13b75	-0.029447297
70	0x00000719	2.546e-42
71	0x3df9596e	0.121752605
72	0xbc6981c5	-0.014252131
73	0x0000052c	1.855e-42
74	0x3e0675ae	0.13130829
75	0xbca4aaf2	-0.020101044
76	0x00000497	1.647e-42
77	0x3dfe646c	0.12421498
78	0xbcaf21c6	-0.02137841
79	0x80000710	-2.534e-42
80	0x3df5fca4	0.12011078
81	0xbbe4d0f4	-0.006982917
82	0x00000a18	3.621e-42
83	0x3e083179	0.13300122
84	0xbc964dc8	-0.018347636
85	0x000004b4	1.687e-42
86	0x3df945ba	0.121715024
87	0xbc6e7eda	-0.014556611
88	0x8000021c	-7.57e-43
89	0x3df26dc0	0.118373394
90	0x3b857f55	0.004074017
91	0x80000194	-5.66e-43
92	0x3f3df6b9	0.74204594
93	0xbcdf967e	-0.02729344
94	0x00000542	1.886e-42
95	0x3e0284b8	0.1274594
96	0xbd0349c9	-0.03205279
97	0x0000096f	3.384e-42
98	0x3e005c25	0.1253515
99	0xbcc3fd07	-0.023924364
100	0x80000b94	-4.153e-42
101	0x3e008d91	0.12554003
102	0xbc97f144	-0.018547662
103	0x80000594	-2.001e-42
104	0x3e023664	0.12716061
105	0xbd07ba1f	-0.033136483
106	0x00000ba4	4.176e-42
107	0x3df31fa2	0.11871268
108	0x3d00fd95	0.031491835
109	0x00000026	5.3e-44
110	0xbf38b193	-0.72145957
111	0xbcac77b7	-0.021053178
112	0x00000359	1.201e-42
113	0x3e05bb4e	0.13059732
114	0xbcd7c058	-0.026336834
115	0x00000666	2.295e-42
116	0x3dd6a6d2	0.10481037
117	0xbdf50912	-0.11964621
118	0x000001aa	5.97e-43
119	0xbf72f6a0	-0.9490757
120	0xbcfeaf1b	-0.031089356
121	0x800008b5	-3.123e-42
122	0x3df86755	0.12129084
123	0xbcd2d1ba	-0.025734771
124	0x80000cea	-4.633e-42
125	0x3e02914c	0.12750739
126	0xbccf6645	-0.02531732
127	0x8000075b	-2.639e-42
128	0x3def2112	0.116762295
129	0x3c3214c8	0.010869212
130	0x00000528	1.85e-42
131	0x3e0b660b	0.13613145
132	0xbc225309	-0.009907492
133	0x000001e2	6.75e-43
134	0x3e04acb4	0.12956506
135	0xbc428fc8	-0.0118751
136	0x800003c2	-1.348e-42
137	0x3e02f5a5	0.12789018
138	0xbcbd7909	-0.023129003
139	0x80000654	-2.27e-42
140	0x3e02bc18	0.12767065
141	0xbc94d97b	-0.018170109
142	0x000004b5	1.689e-42
143	0x3df7fea8	0.12109119
144	0x3c419ef6	0.011817684
145	0x000005c8	2.074e-42
146	0x3e12d5db	0.14339392
147	0xbc96ae92	-0.018393788
148	0x0000088a	3.063e-42
149	0x3df15027	0.11782866
150	0xbc2b407c	-0.010452386
151	0x0000081f	2.913e-42
152	0x3df4b483	0.119484924
153	0xbcc65f50	-0.02421537
154	0x800004a3	-1.663e-42
155	0x3dfa3ab5	0.12218229
156	0xbce1fece	-0.02758732
157	0x00000bc9	4.228e-42
158	0x3e0184c4	0.12648302
159	0xbc31bffe	-0.010848997
160	0x000004a8	1.67e-42
161	0x3e0868ae	0.13321182
162	0xbca7fb10	-0.020505458
163	0x80000983	-3.412e-42
164	0x3df49536	0.11942522
165	0xbce4e7b6	-0.02794252
166	0x80000897	-3.081e-42
167	0x3df756f9	0.120771356
168	0xbc194a97	-0.0093561625
169	0x000005ae	2.037e-42
170	0x3e0058a9	0.12533821
171	0xbb991ef8	-0.004672881
172	0x00000c32	4.375e-42
173	0x3e018e50	0.12651944
174	0xbd545a87	-0.051844146
175	0x000003fc	1.43e-42
176	0x3dee9961	0.116503485
177	0xbce9205b	-0.028457811
178	0x00000086	1.88e-43
179	0x3dea4f65	0.114409246
180	0x3ea1abf0	0.3157649
181	0x80000325	-1.128e-42
182	0xbda24ba2	-0.07924582
183	0xbb19f0c2	-0.002348945
184	0x000008b7	3.126e-42
185	0x3dff83f2	0.124763384
186	0xbca953fa	-0.020669926
187	0x00000406	1.443e-42
188	0x3df7f66a	0.12107547
189	0x3f3ebcdf	0.74506944
190	0x0000015f	4.92e-43
191	0xbf0385c1	-0.5137597

patch_to_embedding.bias f4 [64]
0	0xbd1dfbaf	-0.038570102
1	0xbd1bf376	-0.03807398
2	0xbd0abfa6	-0.033874176
3	0xbd024a97	-0.031809416
4	0xbd13fd35	-0.03613015
5	0xbd2367a6	-0.03989377
6	0xbd1ee925	-0.038796563
7	0xbcc9eb8d	-0.024648452
8	0xbd309820	-0.043113828
9	0xbd369e0c	-0.04458432
10	0xbd1b7348	-0.037951738
11	0xbd236652	-0.039892502
12	0xbd305f14	-0.043059424
13	0xbd2995c4	-0.041402593
14	0xbd230e5c	-0.039808616
15	0xbd12f732	-0.035880275
16	0xbd12dfbe	-0.03585791
17	0xbd06376c	-0.0327677
18	0xbd1e0194	-0.038575724
19	0xbd40399d	-0.046929944
20	0xbd2e25ed	-0.042516638
21	0xbd1db66d	-0.038504053
22	0xbd2278d0	-0.039665997
23	0xbd29fdda	-0.041501857
24	0xbd357b5d	-0.0443071
25	0xbd0ee4a5	-0.03488602
26	0xbd1c167b	-0.038107377
27	0xbd06fbc4	-0.032954946
28	0xbd0403a9	-0.032230053
29	0xbd259285	-0.040422935
30	0xbe86058a	-0.261761
31	0xbcfc1f4e	-0.030776646
32	0xbd2e5867	-0.042564776
33	0xbd075cdf	-0.033047553
34	0xbcef4e06	-0.02921201
35	0xbd377951	-0.04479343
36	0x3e94e87b	0.2908362
37	0xbd080ee7	-0.033217337
38	0xbd3b92a1	-0.045794133
39	0x3eb81d64	0.35959923
40	0xbd363044	-0.044479623
41	0xbd29df5e	-0.041472785
42	0xbd1f469f	-0.03888571
43	0xbd6ae929	-0.057351265
44	0xbcf13d9e	-0.029448327
45	0xbd0c27d8	-0.034217685
46	0xbd298513	-0.041386675
47	0xbcfa411b	-0.030548623
48	0xbd1f166c	-0.038839743
49	0xbd072e18	-0.033002943
50	0xbd0f76ec	-0.035025522
51	0xbd12a042	-0.035797365
52	0xbd2796b4	-0.040915206
53	0xbcdf8ce1	-0.027288856
54	0xbc54a1f0	-0.012978062
55	0xbd3205ba	-0.043462493
56	0xbcf7b0fe	-0.030235764
57	0xbca64e61	-0.020301046
58	0xbd35c1b9	-0.0443742
59	0xbd1fc05e	-0.039001815
60	0x3c9c1722	0.019054
61	0xbce085e1	-0.027407588
62	0xbd200ecc	-0.03907661
63	0x3e2500a2	0.16113523

transformer.layers.0.0.fn.norm.weight f4 [64]
0	0xb9b26524	-0.0003402616
1	0xb8c0d236	-9.194428e-05
2	0x369a3949	4.5962265e-06
3	0x34775293	2.3033708e-07
4	0xb53ff095	-7.150314e-07
5	0x3615957d	2.2289744e-06
6	0x38ddf98b	0.00010584582
7	0x3c0440a6	0.008072054
8	0xb7fbd306	-3.0019797e-05
9	0x3714059f	8.822796e-06
10	0xb9a48b31	-0.00031384223
11	0xb86522f1	-5.4630396e-05
12	0x34a2f638	3.0354e-07
13	0xbb952989	-0.0045520705
14	0xb603c4c4	-1.9635054e-06
15	0x3c2cd3df	0.010548561
16	0x3a5ac3cb	0.00083452155
17	0xb608b32f	-2.0369878e-06
18	0x3c906f6c	0.017631255
19	0xb48019d5	-2.3860653e-07
20	0xb5bf0ae9	-1.4233784e-06
21	0xbbe3fa31	-0.0069573154
22	0xb6c216af	-5.7842913e-06
23	0xb402ef15	-1.2194171e-07
24	0xbbca2cc1	-0.006169886
25	0x398d85c0	0.00026993267
26	0xb5b8ef63	-1.3778739e-06
27	0x33ca906e	9.4326296e-08
28	0xb478c780	-2.3169378e-07
29	0xb4808f20	-2.3945995e-07
30	0x3e8c8d88	0.2745173
31	0xb3bd4dab	-8.815126e-08
32	0x351dbf62	5.8765556e-07
33	0x3b6e8813	0.0036397025
34	0xb9333141	-0.00017089119
35	0x382c82b1	4.112971e-05
36	0x371a027b	9.179693e-06
37	0x34e97fbd	4.3492574e-07
38	0xb78cf911	-1.6805281e-05
39	0x3ec26872	0.3797031
40	0xbc551175	-0.01300465
41	0x3a0fd870	0.0005487269
42	0x35aacd44	1.2725727e-06
43	0xbc06d7e2	-0.008230181
44	0xb6ad97ad	-5.173459e-06
45	0xbcdd6a67	-0.027028276
46	0x38d50775	0.000101580205
47	0xb7c04e58	-2.2924665e-05
48	0x39daa98a	0.00041706517
49	0xba7321b6	-0.00092747377
50	0xb6e85bc3	-6.9248213e-06
51	0xbb7401e1	-0.0037232565
52	0xb90b5471	-0.0001328753
53	0xb8fa051f	-0.00011921883
54	0x377b4bec	1.4978443e-05
55	0x398285d4	0.00024895242
56	0x3ce22c51	0.027609022
57	0x3bacbb65	0.0052713626
58	0xb66a0db3	-3.4876691e-06
59	0x3952308b	0.00020045244
60	0x393445c9	0.00017192135
61	0x35864901	1.0005025e-06
62	0x35a8d16a	1.2577923e-06
63	0x3b16d4a2	0.0023014923

transformer.layers.0.0.fn.norm.bias f4 [64]
0	0xb9d44738	-0.00040488853
1	0x38830e50	6.249233e-05
2	0xb6055c4d	-1.987227e-06
3	0x368873c2	4.066592e-06
4	0xb48a686f	-2.5780488e-07
5	0xb57a8f9a	-9.3341225e-07
6	0x384878b2	4.7796122e-05
7	0x3b26efaa	0.002547244
8	0xb675ef2a	-3.6647057e-06
9	0xb69d2644	-4.6834193e-06
10	0xb7c8f959	-2.395797e-05
11	0x3834537a	4.2993088e-05
12	0xb3da4c19	-1.0165258e-07
13	0xbab12b09	-0.0013516854
14	0xb5baea32	-1.392624e-06
15	0xbc284d99	-0.010272407
16	0xb9811ea7	-0.00024627635
17	0x35a9b563	1.2644272e-06
18	0xbaab0a34	-0.0013049305
19	0xb41af983	-1.443314e-07
20	0x3683fde0	3.933659e-06
21	0xbbb04e4b	-0.005380427
22	0x35e2c5c8	1.6895874e-06
23	0x33044b4f	3.0802138e-08
24	0x3b3aa9d8	0.0028482582
25	0x394af793	0.0001935645
26	0x35d56693	1.589959e-06
27	0x33f9c2e4	1.16304165e-07
28	0x33dbd485	1.0236639e-07
29	0xb3e82cfb	-1.0811524e-07
30	0x3d362a51	0.04447395
31	0xb42b660d	-1.5962742e-07
32	0x343b71bf	1.7457113e-07
33	0xbaaa13ef	-0.0012975911
34	0xb78350eb	-1.5654097e-05
35	0x37063747	7.999893e-06
36	0x38178673	3.612642e-05
37	0xb4cd0783	-3.818969e-07
38	0x36ef63d6	7.1343775e-06
39	0xbd89af36	-0.06722872
40	0x3c0ca9c5	0.008585398
41	0x396ad27a	0.00022394388
42	0x35987439	1.1358708e-06
43	0xbb8de652	-0.004330435
44	0x35ac12c7	1.2820464e-06
45	0xbbf8ed2e	-0.0075966334
46	0x38600ee4	5.341963e-05
47	0xb7151972	-8.8870165e-06
48	0x39839ac7	0.00025101585
49	0x398aeb42	0.00026496692
50	0xb6dc36f3	-6.562908e-06
51	0xbca9e763	-0.020740217
52	0xb8921cf8	-6.967218e-05
53	0xb7ab17f6	-2.0395946e-05
54	0x3596aee5	1.1226772e-06
55	0x39820e89	0.00024806362
56	0x39226111	0.00015485684
57	0xba734413	-0.0009279858
58	0xb5f89860	-1.8521787e-06
59	0xb8ba516c	-8.884337e-05
60	0xb8895789	-6.548974e-05
61	0xb4c41bf9	-3.6528198e-07
62	0xb5dd7770	-1.6500544e-06
63	0x3aa4333b	0.0012527475

transformer.layers.0.0.fn.fn.to_qkv.weight f4 [192, 64]
0	0x339cc149	7.2994744e-08
1	0xaf84e274	-2.4171565e-10
2	0xb04ef7d8	-7.529457e-10
3	0xb183a850	-3.8317367e-09
4	0xb6f5606e	-7.312795e-06
5	0x30434f01	7.105286e-10
6	0xb6e715e0	-6.886883e-06
7	0xb1621887	-3.290127e-09
8	0xae36bce2	-4.154977e-11
9	0xb4e110f4	-4.192185e-07
10	0xb631a44f	-2.6470696e-06
11	0xae3d9a37	-4.3110595e-11
12	0xb1bff2c7	-5.586432e-09
13	0x30f1daf1	1.7597285e-09
14	0xb6200c92	-2.3849175e-06
15	0x3980157d	0.00024430073
16	0x3022346f	5.900977e-10
17	0xb4b7098f	-3.409336e-07
18	0xb6084849	-2.0307655e-06
19	0xafa4bd85	-2.9966088e-10
20	0xac3f3380	-2.717132e-12
21	0x3120ed28	2.3417872e-09
22	0xb60809ad	-2.0271211e-06
23	0xb2acebba	-2.0130631e-08
24	0x38c906f1	9.58572e-05
25	0xaf5c1ada	-2.0018423e-10
26	0x2dfd9666	2.882956e-11
27	0xb4caf921	-3.7806697e-07
28	0xb4e40825	-4.2474235e-07
29	0xb3ab502a	-7.97739e-08
30	0xb07d7fa3	-9.2222247e-10
31	0x2ddfc473	2.5439406e-11
32	0x2d9a575d	1.754657e-11
33	0x3100bf59	1.873522e-09
34	0x2f7e6a4f	2.3138934e-10
35	0x2fd1eedb	3.8186596e-10
36	0x3287f83e	1.5828956e-08
37	0x31adbfee	5.0567825e-09
38	0x35d0df0b	1.5562122e-06
39	0xb2ec42d5	-2.7504408e-08
40	0x30b24706	1.2971391e-09
41	0xb0ff51d7	-1.8576952e-09
42	0x35b0741e	1.3146816e-06
43	0x2f42cc0d	1.771669e-10
44	0x36214576	2.40313e-06
45	0xb756605f	-1.2777832e-05
46	0x339454b9	6.907198e-08
47	0x33c26f71	9.0541e-08
48	0x34b6b76a	3.4033593e-07
49	0x3051a891	7.6273304e-10
50	0x39b41d46	0.00034354086
51	0xb06ed783	-8.6890156e-10
52	0xaee6a90c	-1.0489218e-10
53	0xb7ec480a	-2.8166938e-05
54	0xb119f91b	-2.240603e-09
55	0xb3a77c09	-7.7991054e-08
56	0xb125d09f	-2.4129247e-09
57	0xb5d8f4b2	-1.616447e-06
58	0x2e6f65dd	5.443278e-11
59	0x3886935e	6.417067e-05
60	0x30deabdd	1.6201472e-09
61	0x2f3b3738	1.7027169e-10
62	0xb18a5ea3	-4.0270876e-09
63	0xb16e179a	-3.4646974e-09
64	0x310e4e2b	2.0708153e-09
65	0x2d0b082b	7.903049e-12
66	0xb16d0a32	-3.4493834e-09
67	0xb44d6841	-1.913004e-07
68	0x38969ffb	7.182356e-05
69	0xb0118f08	-5.295395e-10
70	0x3606c62c	2.0082907e-06
71	0xb1ba8cc3	-5.429315e-09
72	0x2f0f0329	1.3006897e-10
73	0xae57f2a7	-4.910086e-11
74	0x33b289bb	8.313824e-08
75	0x31c6f773	5.79069e-09
76	0xb0abf8fa	-1.2512651e-09
77	0x2eaa439e	7.742716e-11
78	0x392bcd83	0.0001638439
79	0x3707acf3	8.086895e-06
80	0xb60d38c2	-2.1043675e-06
81	0xb4ef8651	-4.4614947e-07
82	0xb266dd9c	-1.343815e-08
83	0xb1cc495c	-5.9455214e-09
84	0xb6a41b1f	-4.890738e-06
85	0x31cef58b	6.023304e-09
86	0xb072688e	-8.818767e-10
87	0x361ad1ac	2.3069833e-06
88	0x38d93d77	0.00010358815
89	0x338a15e8	6.4301105e-08
90	0x35542864	7.903493e-07
91	0x310487de	1.928576e-09
92	0x32e562ec	2.6704093e-08
93	0xb00da894	-5.1535065e-10
94	0xb43c48e0	-1.7535376e-07
95	0x3614084f	2.2058555e-06
96	0x2f882ed7	2.4771538e-10
97	0xb639ce4f	-2.7687236e-06
98	0x3161ce79	3.2859175e-09
99	0xae88fb3c	-6.229192e-11
100	0x31aa2455	4.9517817e-09
101	0x319a922c	4.4986077e-09
102	0x323d7c24	1.1029474e-08
103	0xb5246842	-6.1246476e-07
104	0xb19649c5	-4.373961e-09
105	0x305e95e1	8.097612e-10
106	0x3215e915	8.725938e-09
107	0xb31fa96c	-3.717416e-08
108	0xb21060a4	-8.403877e-09
109	0xb2b2452f	-2.0753388e-08
110	0xb26f9b18	-1.3946895e-08
111	0xb8acd0eb	-8.240513e-05
112	0xb5638fbc	-8.477325e-07
113	0xb6eaf5e9	-7.002371e-06
114	0xb2dba783	-2.5571131e-08
115	0xb252b902	-1.2265675e-08
116	0xb10dfd1f	-2.0662083e-09
117	0x347de8f6	2.3647212e-07
118	0xb6b6335c	-5.4300017e-06
119	0xb3ef83bc	-1.1153267e-07
120	0x371fd11e	9.525827e-06
121	0x36decf12	6.6402217e-06
122	0x37a6b5e7	1.9873447e-05
123	0xb79d9020	-1.8782972e-05
124	0x325ac5a2	1.2734207e-08
125	0x34f3c325	4.5404263e-07
126	0x33567719	4.9934076e-08
127	0xb68d23c1	-4.2062898e-06
128	0x2f95f48f	2.7276711e-10
129	0xb10b626f	-2.0283115e-09
130	0xb497c85d	-2.8271725e-07
131	0xb798dd8e	-1.8222981e-05
132	0x3226bdb6	9.705607e-09
133	0x326be17d	1.373007e-08
134	0x3282a569	1.5209212e-08
135	0x30c0646f	1.3998384e-09
136	0x308b104b	1.0118212e-09
137	0x2e0f1d1a	3.2540283e-11
138	0xaed8b324	-9.8543645e-11
139	0x2e912068	6.599593e-11
140	0x37775746	1.4742667e-05
141	0xb5136b8f	-5.4918286e-07
142	0xb1aee858	-5.090481e-09
143	0x323be6ad	1.0937282e-08
144	0x33b42c37	8.389946e-08
145	0xb5b30db7	-1.3340531e-06
146	0x31eb3236	6.8451085e-09
147	0xaee3cb05	-1.03588284e-10
148	0x362f6166	2.6133725e-06
149	0xafa96979	-3.0815864e-10
150	0xb0df7058	-1.6257315e-09
151	0x34737f89	2.2677536e-07
152	0x30d47d3d	1.5460625e-09
153	0x37922cc1	1.7425396e-05
154	0x3781fe13	1.549631e-05
155	0xb5ae0463	-1.2965287e-06
156	0xb3c73f1d	-9.27814e-08
157	0xb6010bc1	-1.922934e-06
158	0x30da8ec6	1.5902166e-09
159	0x3875710a	5.8517828e-05
160	0x352a422b	6.342622e-07
161	0xb4ae7b56	-3.2499764e-07
162	0xb5051e73	-4.959067e-07
163	0xb1ab66fb	-4.9884625e-09
164	0x2fdd4022	4.0245235e-10
165	0x3182da1c	3.808294e-09
166	0xb76265d8	-1.3494362e-05
167	0x324b4661	1.18321575e-08
168	0x2f71f6c8	2.2006497e-10
169	0x36984454	4.5379074e-06
170	0x2f9f82f3	2.9014977e-10
171	0x319733e5	4.400578e-09
172	0x3517b73d	5.651853e-07
173	0xb5974f69	-1.1273488e-06
174	0xb5b71377	-1.3640228e-06
175	0xb251ac27	-1.2204544e-08
176	0xb32440ae	-3.824305e-08
177	0xb6906280	-4.3030013e-06
178	0xb124cde3	-2.3982174e-09
179	0xb2977231	-1.7630642e-08
180	0xb79123b5	-1.7301974e-05
181	0x3627fdf5	2.5032762e-06
182	0xae3fd028	-4.3613252e-11
183	0x38c486cc	9.371116e-05
184	0x311412b8	2.1547475e-09
185	0x301d1f42	5.716069e-10
186	0xb00852e6	-4.959432e-10
187	0xb782e67f	-1.560454e-05
188	0xb7c98ecf	-2.4027568e-05
189	0x3509427f	5.113324e-07
190	0x36a9bdad	5.0586737e-06
191	0x3176a62a	3.5892165e-09
192	0x3320c5d1	3.7432816e-08
193	0x37448807	1.1714182e-05
194	0x37378700	1.0939082e-05
195	0xb36f9ff3	-5.5791997e-08
196	0x37bed806	2.2750359e-05
197	0xae261a97	-3.7767647e-11
198	0x31d4ea79	6.1966685e-09
199	0x336fb7cf	5.5813697e-08
200	0xb6a06458	-4.780053e-06
201	0x2fce7324	3.7552994e-10
202	0xb8a3929b	-7.799753e-05
203	0xb7a716ed	-1.9918627e-05
204	0xb6fbb4dc	-7.5014377e-06
205	0x33c6ca99	9.256946e-08
206	0x38ebc117	0.00011241639
207	0xb4c537c3	-3.6734681e-07
208	0x33baa0db	8.6905594e-08
209	0x310c2c86	2.039799e-09
210	0xb56bf6d8	-8.7903527e-07
211	0xaebc12e7	-8.552608e-11
212	0x348dd7da	2.642035e-07
213	0x354cbaf9	7.6268003e-07
214	0xb490ee7a	-2.6995605e-07
215	0xb23cbce8	-1.0985993e-08
216	0x35595da0	8.097504e-07
217	0xb0bc9430	-1.3720918e-09
218	0xafd6e054	-3.9085768e-10
219	0xb41b88ef	-1.4485316e-07
220	0xb4a4bc61	-3.0684444e-07
221	0x2dd4e75e	2.4204357e-11
222	0xb718dc10	-9.111143e-06
223	0xb00d6918	-5.144485e-10
224	0xaf520447	-1.9100908e-10
225	0x32b972ac	2.1588981e-08
226	0x374602ea	1.1802398e-05
227	0xb09e7f7e	-1.1532248e-09
228	0x3321da73	3.7684412e-08
229	0x2fbbe3ed	3.4177053e-10
230	0xb1c286b9	-5.6614593e-09
231	0xb7a20324	-1.9313367e-05
232	0xb8057c43	-3.18254e-05
233	0x33186378	3.5480724e-08
234	0xaf530663	-1.9192607e-10
235	0xb65a11f8	-3.249499e-06
236	0xb292f032	-1.7105865e-08
237	0x351c6f07	5.8276095e-07
238	0x327f5210	1.4861612e-08
239	0x34c49d68	3.6622373e-07
240	0x35360903	6.78134e-07
241	0xb86b1f54	-5.6057543e-05
242	0x363ebf5e	2.8423597e-06
243	0xb5e29537	-1.6881739e-06
244	0x3531539c	6.6059306e-07
245	0x321d40b2	9.153313e-09
246	0x3047495a	7.2500017e-10
247	0x32a517b7	1.9219312e-08
248	0x38242da6	3.914316e-05
249	0xb4c873ac	-3.7337065e-07
250	0xb4f4601c	-4.551847e-07
251	0xb80f2e06	-3.413672e-05
252	0xb3f1899c	-1.1247468e-07
253	0x2e3fe3f6	4.3630842e-11
254	0x352a67a5	6.348076e-07
255	0xb5102f28	-5.37128e-07

transformer.layers.0.0.fn.fn.to_out.0.weight f4 [64, 64]
0	0x3ae4b188	0.0017447928
1	0x3c24aa75	0.010050406
2	0x3b6a321d	0.0035735436
3	0xbb090c92	-0.0020912034
4	0x3b095e26	0.0020960658
5	0xbb9ab9ec	-0.0047218706
6	0x39ee5540	0.00045458414
7	0x3b6c3aef	0.003604587
8	0x3b12a042	0.0022373353
9	0x3ae255aa	0.0017267962
10	0xbb2a2dac	-0.0025967164
11	0xba4ce0fa	-0.00078155065
12	0xba121c93	-0.0005573716
13	0xbb30d219	-0.0026980697
14	0xbc307b8c	-0.010771643
15	0xb6386618	-2.7477563e-06
16	0xba64b69b	-0.000872472
17	0x3c054bf3	0.0081357835
18	0x3b043530	0.0020173304
19	0xba86beb2	-0.001028022
20	0xbb0516be	-0.0020307745
21	0x3b1ebd81	0.002422184
22	0x3b702775	0.0036644612
23	0xbc234860	-0.009965986
24	0xbafdcf7d	-0.0019364204
25	0xbabed0b3	-0.0014558047
26	0x3b19eed1	0.0023488293
27	0x3ae76c4e	0.0017656179
28	0xbb088b82	-0.0020835106
29	0xbb00e4b5	-0.001966757
30	0xbadd3088	-0.0016875425
31	0x3b9aeaf7	0.004727717
32	0xbab2d0ce	-0.0013642551
33	0x3b35c4b7	0.002773566
34	0xbc51f827	-0.012815512
35	0x3b5b4fb0	0.0033464245
36	0x3811abb0	3.473059e-05
37	0x3dbaec37	0.09127086
38	0xbb993c25	-0.0046763592
39	0x3741739d	1.1530615e-05
40	0x3a9c8e64	0.0011944291
41	0xbac93d30	-0.0015353318
42	0xbab5ac75	-0.00138606
43	0x3b848e96	0.004045318
44	0xba5d472d	-0.0008441087
45	0xb9ff29a8	-0.00048668426
46	0xbb372576	-0.0027945912
47	0x3af506fa	0.0018694096
48	0x3b50707f	0.0031805334
49	0xbb9dc3c3	-0.0048145964
50	0xbaae0351	-0.0013276135
51	0x391187bc	0.00013878843
52	0x3ac1d062	0.0014786834
53	0xbaf2d3c5	-0.0018526247
54	0xbba28dc9	-0.0049607498
55	0x3b567225	0.0032721844
56	0xba97a141	-0.0011568443
57	0xba393966	-0.0007065743
58	0xba227332	-0.0006196975
59	0xbba694b6	-0.0050836457
60	0x3b52abf9	0.003214596
61	0xbba77398	-0.0051102154
62	0xbc472ab7	-0.01215618
63	0xbaafcf2b	-0.0013413181
64	0x3acfa665	0.0015842436
65	0x3bbc0865	0.0057383054
66	0x39486d30	0.00019114162
67	0xba845f82	-0.0010099264
68	0x392709eb	0.00015930056
69	0xbab29ff9	-0.0013627998
70	0x3a98bf4c	0.0011653691
71	0x3961c0b3	0.00021529458
72	0x3b56b4b6	0.003276152
73	0x3b0a125b	0.002106807
74	0xb8453967	-4.702192e-05
75	0xba09f9dc	-0.0005263367
76	0x3a83f354	0.0010067024
77	0x39c5198a	0.00037593796
78	0xbbc78ddb	-0.0060899085
79	0x396c2b63	0.00022522877
80	0xb890c499	-6.903074e-05
81	0x3bb10fb2	0.0054034824
82	0x393b1c7f	0.00017844325
83	0x3a51b087	0.0007999022
84	0x39898746	0.00026231463
85	0x396761f1	0.00022066363
86	0x39b4d31e	0.0003448957
87	0xbbb9a052	-0.0056648636
88	0xbb139ef1	-0.0022525156
89	0xb9f3caf6	-0.0004649979
90	0xba18654a	-0.0005813433
91	0xb90e1bd9	-0.0001355255
92	0xbaa7de5c	-0.0012807357
93	0xb8a73fad	-7.975041e-05
94	0xbafa7a56	-0.0019109945
95	0x3b8f751b	0.0043779737
96	0xb9be2ae6	-0.00036271586
97	0xb969bbdf	-0.00022290599
98	0xbc04a3d0	-0.008095697
99	0x392caa74	0.00016466697
100	0x38901f39	6.872271e-05
101	0x3db747c6	0.089492366
102	0xba1790d0	-0.00057817716
103	0x376c07cf	1.4068514e-05
104	0x3afa5821	0.0019099751
105	0xbb25f8d9	-0.0025325327
106	0xbac7b2f9	-0.0015235833
107	0x3b69b062	0.003565811
108	0x3aa1fa46	0.0012357912
109	0x3aed2f1b	0.0018095704
110	0x3a4410d5	0.0007479315
111	0x3b1af0db	0.0023642096
112	0xb9888661	-0.00026040061
113	0xbb9261b3	-0.004467213
114	0x38bc452e	8.977424e-05
115	0x3b08e891	0.0020890574
116	0x3af1f56b	0.0018459981
117	0x3a6064ad	0.0008559924
118	0xba994e71	-0.0011696351
119	0x385a9903	5.2117754e-05
120	0xbad4befa	-0.0016231232
121	0xba0031af	-0.0004890216
122	0x3a92c33e	0.0011197103
123	0xbb8c1169	-0.0042745364
124	0x392ff17b	0.00016779259
125	0xbaaf33dc	-0.0013366896
126	0xbb99ab3e	-0.004689603
127	0x3a96f18e	0.0011516081
128	0x3ac30bb1	0.0014880804
129	0xbb10f41a	-0.0022118152
130	0xbbb3a154	-0.0054818783
131	0x3a124dda	0.0005581059
132	0xbb0c2464	-0.0021383995
133	0x3c0ea868	0.008707143
134	0x3a701202	0.0009157957
135	0xbbd775cc	-0.006575322
136	0x3b59c042	0.0033226167
137	0x3b2d075e	0.0026402096
138	0x3b532ac2	0.003222153
139	0xba162ca9	-0.0005728701
140	0x3b110853	0.0022130206
141	0x3b8e990e	0.0043517416
142	0x3b2cb0af	0.0026350429
143	0x3a9e2c5a	0.0012067661
144	0x39acbe5c	0.00032948225
145	0x3a537825	0.0008066914
146	0xbb168c1a	-0.002297169
147	0x3b283602	0.0025666957
148	0x3b3bb993	0.0028644546
149	0xbb2052b4	-0.0024463357
150	0xbbcce1b3	-0.0062524914
151	0x3ad43add	0.0016191859
152	0xbb1b573f	-0.0023703126
153	0x399b87b3	0.00029665008
154	0xbb9ae269	-0.004726697
155	0xbafb3b5f	-0.0019167474
156	0x39a846d7	0.00032096237
157	0x3aa9e6f5	0.0012962507
158	0xbb13160c	-0.002244356
159	0x3b1cd8f4	0.0023933025
160	0x39d4d3a8	0.00040593487
161	0xbb9a2e0e	-0.004705197
162	0x3b0fca65	0.0021940705
163	0xbbbbcb0d	-0.0057309926
164	0x38c5bc74	9.428794e-05
165	0x3df15218	0.11783236
166	0x3c169eea	0.0091931615
167	0x37d86a07	2.579858e-05
168	0x3ad410e7	0.0016179354
169	0xbb837f19	-0.004012954
170	0xbaf44574	-0.0018636421
171	0x3a3c7601	0.0007189215
172	0x3b4823d0	0.0030538924
173	0x3b886420	0.0041623265
174	0x3be2502e	0.006906531
175	0x3b456187	0.0030117945
176	0xbbc1b93a	-0.0059119733
177	0xba401a3e	-0.0007328129
178	0x3a68dc2d	0.00088829064
179	0x3b6ee075	0.0036449705
180	0x3a89145b	0.0010458337
181	0x3bab8adf	0.0052350606
182	0x3c1583bb	0.009125645
183	0xbbe11162	-0.0068685273
184	0xba8a1667	-0.0010535241
185	0xb8e90b27	-0.00011112383
186	0x3b1644f7	0.002292929
187	0xbb28e348	-0.0025770236
188	0xbb9ce00a	-0.0047874497
189	0x3bede789	0.007260267
190	0x3c0c3ba4	0.008559141
191	0x3ba8854c	0.0051428434
192	0x3ab986f7	0.0014154603
193	0xbb4c37b7	-0.0031161138
194	0xba8f343a	-0.0010925599
195	0x3a5cc281	0.00084213173
196	0x39703a9a	0.00022910014
197	0x3b2b5186	0.002614112
198	0xba03896b	-0.000501773
199	0xbaadc8f6	-0.0013258744
200	0xba6a0464	-0.0008927046
201	0x3b033206	0.002001883
202	0x399d8952	0.00030047685
203	0xbaae8203	-0.0013313893
204	0xba03bc65	-0.00050253264
205	0x3a276a62	0.00063863967
206	0x3b4afb75	0.0030972634
207	0x3ac1fdac	0.0014800332
208	0xba5ca524	-0.0008416942
209	0xbb471d89	-0.0030382595
210	0x3956b209	0.00020474954
211	0xb94ca832	-0.00019517614
212	0x35cda32e	1.5321182e-06
213	0xb8768ea1	-5.8783804e-05
214	0xba9f5d6e	-0.0012158582
215	0x3b4112ab	0.002946059
216	0xbadaa88b	-0.001668231
217	0xba5f2d07	-0.00085134845
218	0xba0cc955	-0.0005370577
219	0x393b2945	0.00017849084
220	0x3a233062	0.0006225166
221	0xb9916402	-0.00027731067
222	0xbaee7e17	-0.0018195537
223	0xbaf09f83	-0.0018358085
224	0xba5bc0ed	-0.0008382935
225	0xba3364fe	-0.0006843357
226	0x3b662eb8	0.0035123061
227	0xba8417d7	-0.0010077906
228	0x384b6f35	4.850254e-05
229	0x3d916435	0.07099191
230	0x3b29461b	0.002582914
231	0xb621cfd5	-2.4111844e-06
232	0xba5f119c	-0.0008509399
233	0xbb2cf2e2	-0.0026389887
234	0xbadd9c4f	-0.0016907546
235	0xbadbd35c	-0.0016771364
236	0xb9665eef	-0.00021969875
237	0xb8ad6aca	-8.269174e-05
238	0x3aa5975e	0.0012633612
239	0x3b058fbe	0.0020379866
240	0xba8f92ec	-0.001095382
241	0x3ae13490	0.0017181803
242	0xb9d9f28d	-0.0004157018
243	0xb999bf8d	-0.0002932515
244	0xba447160	-0.0007493701
245	0x3a0877a1	0.00052058144
246	0x3b1f7515	0.002433126
247	0xbaabac83	-0.0013097677
248	0x3a28c0e9	0.0006437437
249	0x392f2db4	0.00016706326
250	0xb90f8e39	-0.00013690525
251	0x3acd88bb	0.0015681008
252	0xba6a0d4f	-0.0008928375
253	0x3b0d99e5	0.002160662
254	0x3bb997ae	0.0056638336
255	0x39934d47	0.000280956

transformer.layers.0.0.fn.fn.to_out.0.bias f4 [64]
0	0xbb1ee000	-0.00242424
1	0xbc8939e3	-0.016751235
2	0xbbf04050	-0.0073318854
3	0xba275bfc	-0.0006384251
4	0xbc8efab4	-0.017453529
5	0xbb47da1d	-0.0030494996
6	0xbb480a9c	-0.0030523902
7	0xbc57255b	-0.013131465
8	0x3c3470c3	0.011013213
9	0xba4e224d	-0.00078633876
10	0xbab92be3	-0.0014127459
11	0xbb195681	-0.0023397508
12	0x3b5479d4	0.0032421248
13	0xbbc937ae	-0.0061406707
14	0x3b5e2f1c	0.003390259
15	0xbbec0193	-0.007202336
16	0x3b886941	0.004162938
17	0x3ba171c9	0.0049268943
18	0x3bfe183a	0.007754353
19	0x3c306599	0.01076641
20	0x3a712b8c	0.00091999094
21	0x3b84e19a	0.004055214
22	0xbc743199	-0.014904403
23	0xbba19fc5	-0.004932376
24	0xbc961d30	-0.018324465
25	0x3c6d6198	0.0144886
26	0xbc0f0b99	-0.008730792
27	0xbc630296	-0.013855597
28	0x3c17400b	0.009231578
29	0x3bfcd1de	0.007715448
30	0xbc26d52f	-0.010182663
31	0x3c2dae1f	0.010600596
32	0x3c1011f5	0.008793344
33	0x3c099920	0.008398324
34	0x3bf1eaff	0.00738275
35	0x3bf086de	0.007340296
36	0xbc5adb83	-0.013358
37	0x3c160419	0.00915625
38	0x3c4d9924	0.012548719
39	0xbbd7dd20	-0.0065876395
40	0x3b6f6e41	0.0036534222
41	0x3c7246a0	0.014787346
42	0x3bd804e0	0.006592378
43	0xbc5468c3	-0.01296443
44	0x3ba02a05	0.0048878216
45	0x3b5ee3b9	0.0034010245
46	0xb904258f	-0.00012602493
47	0xbb5a7c83	-0.0033338375
48	0xbcf6ee0e	-0.03014281
49	0x3b70d98d	0.0036750764
50	0x39b499cb	0.0003444686
51	0xba0e3a1b	-0.00054255285
52	0xbc0166c8	-0.00789804
53	0xbb9f4112	-0.004860052
54	0xbcc20aa9	-0.023686724
55	0x3912e4c3	0.00014008865
56	0xbc74cf12	-0.014941948
57	0xbc75a293	-0.014992374
58	0xbb65ab2f	-0.003504466
59	0xbbf792d5	-0.0075553455
60	0x3cc18d5d	0.023626978
61	0x3ca50468	0.020143703
62	0x3bae0d92	0.0053116763
63	0x3c814dce	0.01578417

transformer.layers.0.1.fn.norm.weight f4 [64]
0	0x2d68d3db	1.32347145e-11
1	0xb6a22eb5	-4.8334136e-06
2	0xae295bbd	-3.850763e-11
3	0xb7922c0e	-1.742507e-05
4	0x8000e724	-8.2918e-41
5	0x3114532a	2.1584108e-09
6	0x2953242f	4.6882796e-14
7	0x837cb4d0	-7.4263707e-37
8	0x2dae09c9	1.9785855e-11
9	0x3041168e	7.0245043e-10
10	0xb7dd4ba8	-2.6380483e-05
11	0x30b44809	1.3117197e-09
12	0x0004b366	4.31698e-40
13	0x8000007d	-1.75e-43
14	0xa8ab474a	-1.901573e-14
15	0x80072c0c	-6.5865e-40
16	0x163d1107	1.5272671e-25
17	0xac9330eb	-4.1834223e-12
18	0x3463695f	2.1179356e-07
19	0x300a7191	5.0365495e-10
20	0x240542a5	2.8896228e-17
21	0xa7d70259	-5.9677033e-15
22	0x00002997	1.492e-41
23	0xb49185b1	-2.7105628e-07
24	0xaf9d8c36	-2.865776e-10
25	0x001f8816	2.895719e-39
26	0x2ffa8ab9	4.5573303e-10
27	0x31f39192	7.0887802e-09
28	0x0b379aa3	3.5360854e-32
29	0xb51b71be	-5.7907516e-07
30	0xb10eff96	-2.0809003e-09
31	0x37150b5b	8.883736e-06
32	0x300a1b30	5.0242743e-10
33	0xb1cd72d9	-5.979342e-09
34	0x35b28acf	1.3302432e-06
35	0x0c7ad010	1.9321911e-31
36	0x3b0c2d43	0.0021389283
37	0x03f32d53	1.4292662e-36
38	0x00002202	1.22e-41
39	0xb15926b9	-3.1599667e-09
40	0xb2817b9e	-1.5073791e-08
41	0x867a368c	-4.705985e-35
42	0xb01a76fb	-5.6193955e-10
43	0x9de470ac	-6.0467597e-21
44	0xa9b8e343	-8.210665e-14
45	0x000002e5	1.038e-42
46	0x1aead694	9.71268e-23
47	0xb1cf1685	-6.027053e-09
48	0xa68dae44	-9.831075e-16
49	0x8000f73b	-8.869e-41
50	0xadaf9e67	-1.9965541e-11
51	0x842aada9	-2.0063145e-36
52	0x338cf55e	6.56389e-08
53	0x81923fa9	-5.372328e-38
54	0xaf8f5568	-2.6072233e-10
55	0x977cd55c	-8.169489e-25
56	0x071036ef	1.08495e-34
57	0xb711fac4	-8.701059e-06
58	0x27ac1b85	4.7769427e-15
59	0xb5f2805f	-1.8067766e-06
60	0xa28fa7a3	-3.893772e-18
61	0xb3466f27	-4.620156e-08
62	0x310b9a94	2.031503e-09
63	0x3138c80b	2.6889235e-09

transformer.layers.0.1.fn.norm.bias f4 [64]
0	0xb2fcb7e0	-2.9420278e-08
1	0xb48814af	-2.5347023e-07
2	0xb2300ca0	-1.0247419e-08
3	0x36c0d228	5.7465113e-06
4	0x800351a0	-3.04788e-40
5	0x350ddafb	5.284525e-07
6	0x2f9fbc10	2.9055558e-10
7	0x84095d04	-1.6146983e-36
8	0xb0df2d1d	-1.6238207e-09
9	0x351eace2	5.9111164e-07
10	0xb8fe0462	-0.0001211248
11	0x34f3a657	4.5383305e-07
12	0x000439b3	3.8804e-40
13	0x800001c5	-6.35e-43
14	0xa83e78f6	-1.0573348e-14
15	0x8007d027	-7.1752e-40
16	0x15ea50ca	9.463931e-26
17	0xb11a9aba	-2.2497901e-09
18	0xb22fbce9	-1.0229294e-08
19	0xb4d03359	-3.878038e-07
20	0xa1e992f8	-1.5827596e-18
21	0x281fc443	8.8688305e-15
22	0x80001d3f	-1.0492e-41
23	0x33a9ca8d	7.9065195e-08
24	0x2f46dc54	1.8086271e-10
25	0x8024cd8f	-3.379818e-39
26	0x34861527	2.4974835e-07
27	0x330d9ba3	3.297067e-08
28	0x8b75534b	-4.7247946e-32
29	0x352d1080	6.447153e-07
30	0xae52e5cb	-4.795257e-11
31	0xb7164ef4	-8.959079e-06
32	0xb59ef37d	-1.1842782e-06
33	0x366a4c48	3.4913119e-06
34	0x33cac1ed	9.441633e-08
35	0x8b4297ed	-3.7477337e-32
36	0x35b59b75	1.3530795e-06
37	0x0345fe45	5.8184984e-37
38	0x0000f0f0	8.6432e-41
39	0x2d801255	1.4560056e-11
40	0xb6d3e237	-6.314625e-06
41	0x87f66ee6	-3.7079146e-34
42	0xb4c6ec10	-3.7052132e-07
43	0x1d598b6c	2.879179e-21
44	0xad10a947	-8.2230394e-12
45	0x000003f4	1.418e-42
46	0x9b47ab66	-1.6516276e-22
47	0xb753a098	-1.2613971e-05
48	0x271a989b	2.145452e-15
49	0x000c59f6	1.134298e-39
50	0xb2b1ca12	-2.0697403e-08
51	0x03d50853	1.2520926e-36
52	0x32a34092	1.900506e-08
53	0x01f3419a	8.9358236e-38
54	0xb5d7f134	-1.6088948e-06
55	0x173f88b4	6.188797e-25
56	0x07302e00	1.3254287e-34
57	0xb31a5cc4	-3.594029e-08
58	0x28c6d30b	2.2073941e-14
59	0xb2023f5a	-7.5814e-09
60	0x1fc83ffa	8.4809135e-20
61	0xb5558d54	-7.9554343e-07
62	0x36053067	1.9846718e-06
63	0x2d9707a4	1.7170106e-11

transformer.layers.0.1.fn.fn.net.0.weight f4 [8, 64]
0	0xb0a7d3a2	-1.2210999e-09
1	0x33c6386f	9.230359e-08
2	0xafce92eb	-3.7575573e-10
3	0xb4787960	-2.3140956e-07
4	0x800258b4	-2.15492e-40
5	0x3273b4cb	1.4185569e-08
6	0x2d9ea004	1.8033582e-11
7	0x0365c089	6.751807e-37
8	0xae9350ac	-6.699116e-11
9	0x3290fa79	1.6877708e-08
10	0x34adbcb8	3.2361072e-07
11	0x319a00ea	4.482094e-09
12	0x00011254	9.841e-41
13	0x000003c4	1.351e-42
14	0x29ca28c7	8.977676e-14
15	0x000421ca	3.79463e-40
16	0x94db230d	-2.2127174e-26
17	0xaeda6dbd	-9.932986e-11
18	0x31131235	2.1401665e-09
19	0xb232e336	-1.0412625e-08
20	0xa26387fb	-3.0836224e-18
21	0xa7b47d22	-5.0095705e-15
22	0x00004546	2.485e-41
23	0x31e2c50c	6.5998673e-09
24	0x2f454dc6	1.7944676e-10
25	0x000b09d4	1.013716e-39
26	0x31f881a1	7.232487e-09
27	0x308f71f5	1.0437008e-09
28	0x8b0eaecc	-2.7479708e-32
29	0x32bd000e	2.200252e-08
30	0x2ec5a0a6	8.98706e-11
31	0xb3a052e8	-7.465661e-08
32	0xb3071666	-3.1452508e-08
33	0x33983eff	7.0895105e-08
34	0x3304c1a4	3.090976e-08
35	0x0ba0cdf4	6.193964e-32
36	0x3616861f	2.242981e-06
37	0x835a2191	-6.4102974e-37
38	0x80001233	-6.529e-42
39	0x2cd8717b	6.151688e-12
40	0xb412900e	-1.3649716e-07
41	0x878c6d8f	-2.1129252e-34
42	0xb238a9c7	-1.07488125e-08
43	0x1c873c26	8.949099e-22
44	0xab240858	-5.8276084e-13
45	0x00000150	4.71e-43
46	0x9b6b76f8	-1.9477185e-22
47	0xb434f715	-1.6853694e-07
48	0xa662c2a4	-7.867329e-16
49	0x800256d9	-2.14826e-40
50	0xb070e1db	-8.763245e-10
51	0x04994687	3.6034896e-36
52	0xb0e107c5	-1.6373113e-09
53	0x81884029	-5.0050575e-38
54	0xb2b016bf	-2.049944e-08
55	0x9688defa	-2.2112703e-25
56	0x07ad0a7c	2.603631e-34
57	0xb429c24a	-1.5810033e-07
58	0xa7f0a464	-6.6791614e-15
59	0x334f94ed	4.833139e-08
60	0xa15a2e58	-7.392261e-19
61	0xb28cbf78	-1.6385215e-08
62	0x3311ef96	3.3978345e-08
63	0xae24664f	-3.738015e-11
64	0x303fc507	6.976539e-10
65	0xb3811b7f	-6.012032e-08
66	0x303dca35	6.9045153e-10
67	0xb3520cc4	-4.8906045e-08
68	0x80037900	-3.18913e-40
69	0xb2a4f03b	-1.9201357e-08
70	0xae571b98	-4.890985e-11
71	0x83c07a43	-1.1312816e-36
72	0x2e9ac80c	7.038645e-11
73	0xb27322f4	-1.4152409e-08
74	0x351cfb1f	5.847996e-07
75	0xb1c446d4	-5.712403e-09
76	0x00001a31	9.396e-42
77	0x80000152	-4.74e-43
78	0x297f523a	5.6692694e-14
79	0x0001f3ae	1.79251e-40
80	0x1626028c	1.3410177e-25
81	0x2f452b02	1.7932325e-10
82	0xb1179a0c	-2.2060958e-09
83	0x3227eafd	9.7741095e-09
84	0x21a79c23	1.1357689e-18
85	0x26a938d9	1.1742139e-15
86	0x80002e61	-1.6638e-41
87	0xb21ae615	-9.016294e-09
88	0xafa376f5	-2.973405e-10
89	0x0004a0bd	4.25004e-40
90	0xb1e89994	-6.7695485e-09
91	0xb06b6782	-8.5639595e-10
92	0x0b338431	3.4573596e-32
93	0xb2ec0869	-2.747784e-08
94	0x2f8a17fc	2.5119096e-10
95	0x32a1019b	1.8743597e-08
96	0x329a4545	1.795946e-08
97	0xb3a385d1	-7.61462e-08
98	0xb29c633e	-1.820592e-08
99	0x8c371eee	-1.4107115e-31
100	0xb69c962d	-4.666645e-06
101	0x8442eca9	-2.291326e-36
102	0x0000562e	3.0915e-41
103	0xafd01104	-3.784707e-10
104	0x3466f7b3	2.1510532e-07
105	0x857995be	-1.1735427e-35
106	0x323c5d58	1.0964264e-08
107	0x9bc19a55	-3.2028906e-22
108	0x2b7fea1e	9.09191e-13
109	0x0000023f	8.06e-43
110	0x9b0c3e65	-1.1600689e-22
111	0x3457fcfd	2.0115472e-07
112	0x26b6fbe3	1.2697061e-15
113	0x8005599a	-4.9132e-40
114	0x300dc31b	5.157276e-10
115	0x03e2892f	1.3314582e-36
116	0x30c643b9	1.4425644e-09
117	0x81d5c6ee	-7.8529293e-38
118	0x32cb8cc6	2.3696327e-08
119	0x96afdbad	-2.841141e-25
120	0x066aec2d	4.4184023e-35
121	0x34605a0a	2.0894382e-07
122	0x271c3ba0	2.1681672e-15
123	0xb382ea20	-6.096184e-08
124	0xa114cb35	-5.0413293e-19
125	0x32dd2faa	2.5749461e-08
126	0xb32111db	-3.7501973e-08
127	0xaf15be10	-1.3618995e-10
128	0x2f2e6c24	1.5863627e-10
129	0x31bc9555	5.488497e-09
130	0xaf9e2e70	-2.8773028e-10
131	0xb3cfa727	-9.6695935e-08
132	0x8000a9ff	-6.0983e-41
133	0x307950b4	9.070036e-10
134	0x2c0f9cc3	2.0408542e-12
135	0x822a4932	-1.2510634e-37
136	0x2ccfee97	5.9097826e-12
137	0xb04862cf	-7.289999e-10
138	0x33d89493	1.0085309e-07
139	0x318d7fd2	4.1181716e-09
140	0x8000109c	-5.958e-42
141	0x800002a8	-9.53e-43
142	0xa98fcafe	-6.385689e-14
143	0x80003020	-1.7264e-41
144	0x93d5a91c	-5.3935514e-27
145	0xad946de1	-1.6874448e-11
146	0xaf3d54f5	-1.7219633e-10
147	0x30bb1d81	1.3614426e-09
148	0xa2079471	-1.8374496e-18
149	0xa7273aad	-2.3207714e-15
150	0x0000328a	1.813e-41
151	0x309dfc95	1.1495042e-09
152	0x2d9f8719	1.8136203e-11
153	0x8011075f	-1.563848e-39
154	0x2fcf40f2	3.7699227e-10
155	0xaef24e07	-1.1018746e-10
156	0x89f3f0c8	-5.872655e-33
157	0xb05ee401	-8.108714e-10
158	0xaeabdf12	-7.815805e-11
159	0x307c6f15	9.1834923e-10
160	0x309ddc62	1.148589e-09
161	0x3058e321	7.890311e-10
162	0xb12b602f	-2.493845e-09
163	0x8b27f4c0	-3.234716e-32
164	0xba8db00e	-0.0010809915
165	0x83457e41	-5.803803e-37
166	0x80000857	-2.992e-42
167	0xaee78ff9	-1.05302385e-10
168	0x315e58f4	3.2355816e-09
169	0x8639a278	-3.4913996e-35
170	0x309c02d4	1.1351298e-09
171	0x9b920a62	-2.4160384e-22
172	0x2a96afed	2.6767426e-13
173	0x8000041a	-1.471e-42
174	0x9a06c9c5	-2.787354e-23
175	0xb3d12521	-9.7390746e-08
176	0xa577d723	-2.1496726e-16
177	0x8002f739	-2.72358e-40
178	0x2ea357b2	7.4279596e-11
179	0x02a81b29	2.470097e-37
180	0x2dcb0f44	2.3085207e-11
181	0x80e9afb5	-2.1460702e-38
182	0x313f03f3	2.7796403e-09
183	0x1692e625	2.3732814e-25
184	0x86da12a7	-8.2029893e-35
185	0xb36b7786	-5.4823907e-08
186	0x270e6668	1.9761973e-15
187	0x329ab1b2	1.8008766e-08
188	0x2025a311	1.4029998e-19
189	0x30e47aa7	1.6624043e-09
190	0xb190cdf2	-4.214365e-09
191	0xad418bc6	-1.1001816e-11
192	0x307442f8	8.886185e-10
193	0x3205fc48	7.798981e-09
194	0x2fdd1fdb	4.02223e-10
195	0xb2a52666	-1.922599e-08
196	0x80001c6f	-1.02e-41
197	0xb23d88b7	-1.1032333e-08
198	0x2c4a90c4	2.8786288e-12
199	0x0304db98	3.9043395e-37
200	0xad1de880	-8.976042e-12
201	0xb08497c4	-9.647398e-10
202	0x34ba9cf1	3.475939e-07
203	0xb280b096	-1.4981463e-08
204	0x8000f0f8	-8.6443e-41
205	0x00000665	2.294e-42
206	0x27c92e5f	5.5838983e-15
207	0x0006e56a	6.33311e-40
208	0x150293a7	2.6369768e-26
209	0x2f17b783	1.3798566e-10
210	0xb0da331a	-1.5876112e-09
211	0x3177dc96	3.606862e-09
212	0xa318cbf4	-8.283125e-18
213	0x27139655	2.0481843e-15
214	0x80000e01	-5.024e-42
215	0xb0bc1815	-1.3685645e-09
216	0xaf2db653	-1.5799033e-10
217	0x0017b337	2.176507e-39
218	0xb1c55c32	-5.743936e-09
219	0x2d04f5c6	7.557904e-12
220	0x8c201729	-1.2332921e-31
221	0xb1641b63	-3.3193934e-09
222	0xadaad5ce	-1.942171e-11
223	0xb1f427dc	-7.105866e-09
224	0x310bcb7d	2.0342832e-09
225	0xb3a20baf	-7.545838e-08
226	0xb2d8f40f	-2.5256695e-08
227	0x0bf7c3ce	9.5435553e-32
228	0xb8c15453	-9.218664e-05
229	0x83d55b2e	-1.2539949e-36
230	0x00000159	4.83e-43
231	0x2e2d9c31	3.947437e-11
232	0x341a04c6	1.4344104e-07
233	0x053cfc6f	8.886082e-36
234	0x2fb10900	3.2202507e-10
235	0x1ab661be	7.5431347e-23
236	0xab3d6ba9	-6.7295697e-13
237	0x800004cc	-1.721e-42
238	0x1bb3ebb2	2.976538e-22
239	0x34e68c76	4.2943037e-07
240	0xa6b2360f	-1.2365884e-15
241	0x8016f1ca	-2.107118e-39
242	0x304d5315	7.469663e-10
243	0x036c591b	6.9456455e-37
244	0xb02a23e5	-6.189665e-10
245	0x80c02612	-1.7646072e-38
246	0x31860675	3.9006474e-09
247	0x9661b2fa	-1.823183e-25
248	0x0780d5fa	1.9385064e-34
249	0xaf64bc62	-2.0803406e-10
250	0x28627daf	1.25727735e-14
251	0xb275be28	-1.43041134e-08
252	0xa1896cc8	-9.312275e-19
253	0x31a1a861	4.704859e-09
254	0xb127d867	-2.442471e-09
255	0xadf23e37	-2.7539844e-11

transformer.layers.0.1.fn.fn.net.0.bias f4 [8]
0	0xb9619b9e	-0.00021515644
1	0x3966e11f	0.00022018373
2	0xb82936b7	-4.0343697e-05
3	0x38931ed4	7.0152484e-05
4	0xba35f0b5	-0.000694047
5	0xb67e21b2	-3.7868563e-06
6	0xb9409be2	-0.00018368618
7	0xb9004130	-0.00012231315
