Pavia_model/India_SpectralFormer.pt (torch, 674454 bytes, 69 tensors)

pos_embedding f4 [1, 104, 64]
00000000: 6e7d 48bc e041 2a3c aa09 a23c 62f6 933a
00000010: 9dfe a93b 220c 8d3c 0edc f93b 851b 473b
00000020: 0239 9b3c 399c c63a eee3 eb3c 16f1 b73c
00000030: 8910 573c ee3c 3fbb 4556 88bb e393 bcbc
00000040: 577f 3e3b fca7 313c b3c5 0f3c 4364 49bc
00000050: 69bd 093b 48ed b63c cb50 79bb 804e 893a
00000060: f2df c73a 88c3 b13b 12c7 7b3c d052 f93b
00000070: a2ff 483c e400 b8bc ab86 183d fc82 a6bc
00000080: a0c1 69ba 63fa 0d3d 1afa 82bc 74da 97bb
00000090: c273 16bd d830 9e3c 046d 3a3c f785 d5bc
000000a0: b7af 61bb 8016 163c 2da2 863c 90b9 72bb
000000b0: f06a 2d3d 6ee4 ab3b db11 d63b 50eb 793c
000000c0: fb34 59bc 746f 973b 76e4 723b b476 c23c
000000d0: af12 11bc 0822 8a3b f50b 8fbb e555 9d3c
000000e0: 7b03 dc3c 8fb6 dc3b 2911 1d3c 3ffd a13c
000000f0: 82df 6e3c ec62 a23b 209f 6b3a 4833 cd3b
00000100: 81a9 ef3b 51ec b9bc 2316 bdbc f917 03bd
00000110: 4d30 19bc c7fe d2bb 4495 59bc e1fa 6a3b
00000120: 8ecc 94bc 870a a5bc db33 acbc 8a63 edba
00000130: 4eef 18bc 29db c93c f70f bbbc e0f2 0f3c
00000140: 57b0 8ebc 6f61 38bc 985f cebb d0b8 ebba
00000150: 8931 623b 4859 a1bc 0170 e2ba 60a9 d6bc
00000160: bd0c 253b 258e 11bc 76d8 ae3b 9f56 38bc
00000170: 089a ddba a35a efbc e423 69bc 9fce 71bb
00000180: b22b 22bd 3e94 50bc e85f 463c a225 10bd
00000190: 94d5 cf3b b150 e9bc f6c7 09bc fd39 9bbc
000001a0: 34cb dc3c 6fbf 8fbb e520 11bd d4e2 a8bb
000001b0: 1209 93bb c3c8 09bc 8e93 1ebb e47e e4bc
000001c0: 894b c5bc c4ef 55bb de58 933c 2d74 cebb
000001d0: aa52 3a3c 2100 06bd cef2 6eb7 5dd6 7bbc
000001e0: ceb8 01bc fe09 a6bc 143a ae3c 7bd6 35bc
000001f0: 14a5 e9bc 2290 c43b bb61 7dbc 8aec aabb
00000200: b9f9 823b 2889 35bc 804c 043d d3b4 c53c
00000210: 00f7 173b 2f4c 4f3b aeff d93c 847b 0b3c
00000220: b07a 823b 5a5c 413b 0255 1c3d 38b6 963b
00000230: a7ef d33c a96a ffba 41e4 9b3b 9a37 c33a
00000240: 9bba 233b 62f5 7f3c 606e 453a 9499 163c
00000250: 5975 54bc 9d5e 5d3d 6974 0e3e ea0f 16bb
00000260: 6da0 043c 1e8e 8b3c 67ce b93c 279c 213c
00000270: bbf2 bf3c 474a 043c d24b 313c 0d57 8c3c
00000280: 2613 b03b ec0c 123c 16f9 2fbc 79f0 84bc
00000290: e103 f83c 007e 933b 569f dd3b d179 8f3b
000002a0: b4a2 a3bc b68f 823c 36b5 58bc 9fef ca3c
000002b0: 4485 e63a 069a b23c 1fb3 973c 6518 3e3c
000002c0: 8d3b a7bc 8375 99bc 7c9c ad3c a4ce d73c
000002d0: c74c a4bb 1649 af3c 0daa f83b 9035 0b3b
000002e0: 409e 42bb 552f 133c 6d82 873c 5934 91bc
000002f0: 4acc 22bc dafa 363b f1a9 28be ce64 ec3b
00000300: 6876 493c 2fed f5bb d028 d83b 0122 933d
00000310: fb3e a2bb 957b 21bc 6f10 8c3c aa61 453d
00000320: fe37 953c 9958 24bb 6976 26bc ea95 2cb9
00000330: ff17 903c bdce 293c 50f8 87bc 40a3 9abc
00000340: d72b 99bc f8c7 063b fd08 81bc 646f 7bbc
00000350: 3860 32b9 65aa 123c 2162 353e 097e 5ab9
00000360: 3c49 fabb 633f 9e3c d27f 03bc a913 2bbd
00000370: 33ee a63b 169c 09bd a4b1 863c 29bf 9f3b
00000380: f0c7 97bc 6f69 83bc d1d8 043b a3ee 883c
00000390: 2252 dabc d437 e5bc e08c 37bc cb94 1d3c
000003a0: 082d 90bd 7d01 d53c bb0b a13b 9470 3a3b
000003b0: 37a3 b5bb 39d1 b93b ce4e 803c 1e06 f83c
000003c0: 902b a4bc e1e7 8abc 89d1 59bb 014f 843c
000003d0: 46c3 91ba 0a3f d53c cd94 9e38 f5f1 d6bc
000003e0: eaf7 1ebd cd4e 8c3b 6606 d9b8 a3c5 9a3b
000003f0: ab2e fcbc 4df0 123c 93fd 45be 5769 5b3c
-0.012236936 0.010391682 0.019779999 0.0011288638 0.005187823 0.0172177 0.0076251095 0.0030381393
0.018948082 0.0015152759 0.028795209 0.022453826 0.013126501 -0.0029180604 -0.0041606748 -0.023019737
0.00290676 0.010843273 0.0087751625 -0.012291971 0.0021017438 0.022329941 -0.003804254 0.0010475665
0.0015249236 0.0054249205 0.015367286 0.007608749 0.012267979 -0.022461362 0.037237804 -0.02032613
-0.0008917097 0.034662616 -0.015988398 -0.004634196 -0.03673149 0.0193104 0.01137853 -0.026064856
-0.003443701 0.009160638 0.016434753 -0.0037036873 0.04233831 0.005245737 0.0065328903 0.015253857
-0.01325726 0.0046214405 0.0037062443 0.023738243 -0.008854552 0.0042154826 -0.004365439 0.019205997
0.026857128 0.00673563 0.009586611 0.019774077 0.014579656 0.00495564 0.000898825 0.0062622167
0.0073139076 -0.022695692 -0.023081845 -0.032005284 -0.009349895 -0.006439063 -0.013280217 0.0035855102
-0.018163946 -0.020146621 -0.02102082 -0.001811133 -0.009334398 0.024640637 -0.022834761 0.008785933
-0.01741807 -0.011253699 -0.0062980168 -0.0017984156 0.0034514389 -0.019695893 -0.0017275811 -0.026203811
0.0025184595 -0.008883988 0.0053358627 -0.011251121 -0.0016906867 -0.029218024 -0.014229748 -0.0036896837
-0.039592452 -0.012730656 0.012107827 -0.03519214 0.006342599 -0.02848086 -0.008409491 -0.01894855
0.026952364 -0.0043868343 -0.03543176 -0.005153993 -0.0044871652 -0.008409682 -0.0024196836 -0.027892537
-0.02408387 -0.0032644132 0.017986711 -0.0063004703 0.011372248 -0.032714967 -1.4242438e-05 -0.015370932
-0.007917596 -0.020268437 0.021267928 -0.011098499 -0.028521098 0.0059986273 -0.015465195 -0.005216186
0.0039970544 -0.011080064 0.03229952 0.024134075 0.0023187995 0.0031631102 0.026611175 0.008513335
0.0039819106 0.0029504509 0.038167007 0.004599359 0.025871111 -0.0019486743 0.0047574346 0.001489389
0.0024983052 0.015622469 0.0007531401 0.009191889 -0.012967431 0.05404531 0.13911594 -0.002289767
0.008094889 0.01703554 0.022681428 0.00986389 0.023431173 0.00807435 0.0108213 0.017131353
0.0053733764 0.008914214 -0.010740539 -0.016227948 0.030275287 0.0045011044 0.006763379 0.0043785353
-0.019975044 0.015937667 -0.013226798 0.024772463 0.0017587324 0.02180196 0.018518029 0.011602496
-0.020414138 -0.018732792 0.021192782 0.026343651 -0.0050140354 0.021397155 0.007588631 0.0021241643
-0.0029696375 0.008983453 0.016541684 -0.017725157 -0.009936402 0.0027920515 -0.16471078 0.0072141653
0.012296297 -0.007505081 0.006596662 0.0718422 -0.0049513555 -0.009856124 0.01709768 0.048188843
0.018215176 -0.0025077222 -0.010160067 -0.00016459046 0.017589567 0.010364232 -0.016597897 -0.018876672
-0.018697662 0.0020565968 -0.015751356 -0.015346382 -0.00017011247 0.008951758 0.17713214 -0.00020837052
-0.0076381247 0.019317335 -0.00802608 -0.041766796 0.0050943135 -0.03359612 0.016442128 0.004875083
-0.018527955 -0.016041486 0.0020270834 0.016715353 -0.026650492 -0.027980722 -0.011203021 0.009617995
-0.07039839 0.026001686 0.0049147285 0.002844845 -0.0055431384 0.0056706932 0.015662577 0.030276354
-0.020040303 -0.016956272 -0.0033236465 0.016150953 -0.0011120818 0.026031036 7.5617434e-05 -0.026238421
-0.038810648 0.0042818547 -0.00010348558 0.004723267 -0.030783972 0.008968425 -0.19335012 0.013391814

cls_token f4 [1, 1, 64]
00000000: 6f7d 48bc e241 2a3c aa09 a23c b4f6 933a
00000010: 9bfe a93b 230c 8d3c 0cdc f93b 7f1b 473b
00000020: 0139 9b3c 139c c63a eee3 eb3c 17f1 b73c
00000030: 8710 573c fb3c 3fbb 4456 88bb e493 bcbc
00000040: 4f7f 3e3b f9a7 313c b4c5 0f3c 3e64 49bc
00000050: 6ebd 093b 47ed b63c 1a51 79bb 7b4e 893a
00000060: d9df c73a 8ac3 b13b 14c7 7b3c d152 f93b
00000070: a4ff 483c eb00 b8bc ab86 183d f782 a6bc
00000080: 94c1 69ba 61fa 0d3d 19fa 82bc 72da 97bb
00000090: c273 16bd d930 9e3c 026d 3a3c f785 d5bc
000000a0: b7af 61bb 7e16 163c 29a2 863c 8eb9 72bb
000000b0: ef6a 2d3d 6ce4 ab3b d711 d63b 4ceb 793c
000000c0: f934 59bc 736f 973b 60e4 723b b476 c23c
000000d0: b312 11bc 0c22 8a3b fb0b 8fbb e455 9d3c
000000e0: 7903 dc3c 97b6 dc3b 2c11 1d3c 40fd a13c
000000f0: 80df 6e3c e762 a23b 829d 6b3a 4633 cd3b
-0.012236937 0.010391684 0.019779999 0.0011288733 0.005187822 0.017217701 0.0076251086 0.003038138
0.01894808 0.0015152715 0.028795209 0.022453828 0.013126499 -0.0029180634 -0.0041606743 -0.023019738
0.002906758 0.01084327 0.008775163 -0.012291966 0.002101745 0.02232994 -0.0038042725 0.001047566
0.0015249207 0.0054249214 0.015367288 0.0076087494 0.012267981 -0.022461375 0.037237804 -0.02032612
-0.000891709 0.034662608 -0.015988396 -0.004634195 -0.03673149 0.019310402 0.011378529 -0.026064856
-0.003443701 0.009160636 0.016434746 -0.0037036869 0.042338308 0.005245736 0.0065328884 0.015253853
-0.013257259 0.00462144 0.0037062392 0.023738243 -0.008854556 0.0042154845 -0.004365442 0.019205995
0.026857125 0.0067356336 0.009586614 0.01977408 0.014579654 0.0049556377 0.0008988009 0.006262216

patch_to_embedding.weight f4 [64, 3]
00000000: 40cf 12bd d5a9 68bc eef8 7bbc a875 afbc
00000010: 5901 79bb 722d 1d3b a45d d6bc 4b9b 06bc
00000020: 0107 0fbc 13be 823e f5d1 f33e b7ca a13e
00000030: b02f 46bc 40d2 2e3b b195 623b eb30 03bd
00000040: 68b3 42bc 40ce 34bc 44ab f5bb d070 fb3b
00000050: 3c4e ff3b f1d4 b2bb ace3 f33a 7b47 183a
00000060: 08b7 93bc 1cc3 9ebb a31d 53bb 8cfc 6abb
00000070: e2e6 483c 9d9d 493c dcbc 8ebc 3f26 6e3a
00000080: dded 303b 4565 66bc 1de1 c23b 251a ac3b
00000090: 8eed 0ebd 38d9 1dbc d22f a6bb 8acc 29bc
000000a0: 4b4d 0b3a 25ad 99b9 c802 8dbc 9e5a cb3a
000000b0: 111e 11ba 9c51 7fbd 614a 38bd 63b7 91bd
000000c0: b184 63bd 66d3 a7bc 0261 dfbc ea2e bcbc
000000d0: f842 6abb 29f5 fbbb be83 b5bc a0f1 6bbb
000000e0: 8a09 07bc 67c3 70bc 324a b83a 2276 ec3b
000000f0: d6c4 d5bc c9d0 15bc cbe9 3cbc f443 a8bc
00000100: e841 9bbb 0e93 ccbb 9458 2c3f c703 683f
00000110: e822 073f 7e82 01bd ac96 7dbc 95d8 8ebc
00000120: a333 2cbc 9ba9 503b c8e1 cc3b 3edf b5bc
00000130: 86cd 20bb ab3f 03bc 421d c9bc 28ae ddbb
00000140: e331 0cbc a502 1fbc 1b37 193c 4ded d63b
00000150: 9e16 8abc 0784 b239 bf9d 0d3b e3e0 81bd
00000160: b39f d5bc 919b 21bd 4ce5 9cbc ea91 22bb
00000170: c88c 673b cdd4 3fbc d36f e3ba 846f 12bc
00000180: 8a72 13bd 29f7 81bc 2f32 03bc 0013 77bc
00000190: aad3 583a ee4d d23b 565b 55bd 96e6 a6bc
000001a0: 1628 b0bc aadf 1abd 04e1 7abc 1992 a8bc
000001b0: d22f 97bc ee09 bbbb 38be f4bb 2e1c 55bc
000001c0: 3bf1 823b 542e 933b 06b9 bbbc c5b1 d1bb
000001d0: 013a 873a 13c3 e9bc 13df b2bb 3e00 39bb
000001e0: 203f ecbd b904 99be df84 1fbe 46ff c9bc
000001f0: 4114 35bc 30ad 07bc b179 1ebc 9da8 c43b
00000200: d82c 5e3b 04ed f2bc 201a 62bc 76b3 64bc
00000210: 5439 91bb 8212 d93b e822 273c df20 2fbd
00000220: c777 a0bc f02c a4bc 62b2 bdbb 8fd8 d93b
00000230: 42c0 873b d4a0 babb 0ec1 e13b ae7e 053c
00000240: e5b3 11bd bd5a 2cbc 8aab 6abc 4e0e c7bc
00000250: 5c56 acbb 1d1e afbb 78df d1bc 85e2 18bc
00000260: ee12 febb 0c08 36bc 1b2e bf3b 59d3 e7ba
00000270: 6276 08bd bc3f 75bc c5fb 8bbc 0ef1 4d3b
00000280: 4a58 953c 7a97 943c 57b4 04bc 00b7 923b
00000290: c618 c23b dc8c 33bc b97a eb3b 1d58 c13b
000002a0: 6259 89bc 3b5c 15bb 16ec 3fb8 2d17 e4bc
000002b0: 7427 00bc 71c1 aabb 8fe7 a539 fc45 183c
000002c0: 225a 4b3c 7c2e dfbc 4d67 9cbb a695 f7ba
000002d0: 2b40 47bd 0d3b 90bc 276e 8ebc d868 93bc
000002e0: 3d41 6f3a cf2a 1fbb b023 cfbd 2017 90bf
000002f0: 0a3b 16bf 158d 00bd 1f4f 82bc 6a2c 7dbc
-0.03584218 -0.014200647 -0.015379174 -0.021418408 -0.0037995188 0.0023983386 -0.026167698 -0.008215736
-0.008729697 0.2553564 0.47621122 0.31599972 -0.0120963305 0.0026675612 0.0034574086 -0.032029074
-0.011883594 -0.011035502 -0.007497223 0.0076733604 0.0077913087 -0.0054575135 0.001860728 0.0005808991
-0.018031612 -0.004845036 -0.003221371 -0.0035856096 0.012262078 0.012305644 -0.01742404 0.00090846786
0.0026997246 -0.0140622305 0.0059472458 0.00525214 -0.03489452 -0.0096343085 -0.0050716186 -0.010363707
0.0005313947 -0.00029311437 -0.01721324 0.0015514677 -0.0005535791 -0.06233369 -0.04499281 -0.07115056
-0.055546466 -0.020486545 -0.027267937 -0.02297159 -0.0035745483 -0.0076891375 -0.022157546 -0.0036002174
-0.00824202 -0.014695025 0.0014060198 0.007216231 -0.026094835 -0.009144017 -0.01153035 -0.020540215
-0.0047380812 -0.006243116 0.6732266 0.90630764 0.5278764 -0.031618588 -0.0154778175 -0.017437259
-0.010510358 0.0031839374 0.006252501 -0.022201177 -0.0024536564 -0.008010785 -0.024550084 -0.006765146
-0.008556816 -0.00970522 0.009351517 0.00655905 -0.016856488 0.00034049174 0.0021608917 -0.06341722
-0.026077127 -0.039455 -0.019152306 -0.002480621 0.0035331715 -0.0117084505 -0.0017352052 -0.00893772
-0.035997905 -0.015864925 -0.00800757 -0.015080214 0.00082712865 0.0064179813 -0.052089058 -0.020373624
-0.02150349 -0.03781096 -0.015312437 -0.020577477 -0.01845542 -0.005707971 -0.007468965 -0.013007207
0.003996042 0.0044916067 -0.022915374 -0.0063993656 0.0010316969 -0.028535401 -0.0054587214 -0.0028228904
-0.11535478 -0.29886416 -0.1557803 -0.024657857 -0.011052192 -0.008281037 -0.009672568 0.0060015456
0.003390124 -0.029654033 -0.013800174 -0.013958802 -0.004431883 0.0066245208 0.010201193 -0.042755958
-0.019588364 -0.02004096 -0.005789087 0.0066481302 0.004142792 -0.0056954417 0.006889469 0.008147879
-0.03557195 -0.010519681 -0.014323125 -0.024298813 -0.0052593183 -0.005344166 -0.025619254 -0.00933135
-0.0077537214 -0.011110317 0.0058343536 -0.0017686888 -0.033316024 -0.014968809 -0.017087827 0.0031424197
0.018230576 0.018138636 -0.008099637 0.0044773817 0.0059233634 -0.010958876 0.0071862605 0.0059003965
-0.016766254 -0.002279057 -4.575782e-05 -0.027843082 -0.007821906 -0.0052110483 0.00031643777 0.009294029
0.012411626 -0.027243845 -0.0047730566 -0.0018889203 -0.04864518 -0.017606283 -0.01738651 -0.01799433
0.0009126848 -0.002428699 -0.10114229 -1.1257057 -0.58683836 -0.031384546 -0.015906869 -0.015452484

patch_to_embedding.bias f4 [64]
00000000: ae53 55bc d11f c2bc de14 2dbd 8d01 3fbe
00000010: 6e11 80bc 2bdb 59bc 11ac a8bc 2331 c8bc
00000020: 2db1 f9bc b115 b5bc 6e76 08bd c334 24bb
00000030: 074a d8bc 0dc5 3dbc 8a35 f9bc 2633 01ba
00000040: b57c f8bc 4fbb f8bc 8f09 fbbc f7ca d0bc
00000050: c92e d2bc 8918 0fbd 525e 97be 462b 0dbd
00000060: fd4a d6bc d1b9 a1bc 8197 1abd 9b5d 8fbc
00000070: 8bd5 9ebc 5af7 023c f824 77bc e093 babc
00000080: 00c7 eebc 89d7 20bc 62c7 22bc db3e 23bd
00000090: 1707 c6bc 8998 75bc 203f bbbc e5e9 c9bc
000000a0: 67a8 e33d d42b e3bc a82a 2fbd a03d 26bd
000000b0: d057 d1bc 9276 e6bc fca2 dabc ce0a cebc
000000c0: 86e9 00be 9fa1 f2bc ff2f 12bd 08fd fdbc
000000d0: 8b97 f7bc 912d a3bc 10a3 47bc 2706 13bd
000000e0: 31db e6bc 1027 41bd b8be abbc 6fe1 efbc
000000f0: fe71 c4bc 2617 98bb e07d 943e 72ca c3bc
-0.013020439 -0.023696812 -0.04225623 -0.18652935 -0.015633311 -0.013296883 -0.02058986 -0.024437493
-0.030479992 -0.02210507 -0.03331607 -0.0025055862 -0.026402486 -0.011582625 -0.030421037 -0.0004928581
-0.030332902 -0.030362753 -0.030644206 -0.025487406 -0.025657075 -0.034935508 -0.29564148 -0.034465097
-0.026158804 -0.019741924 -0.03774214 -0.01750069 -0.019388935 0.0079935435 -0.015084498 -0.02277559
-0.029147625 -0.009817013 -0.009935232 -0.039854866 -0.024173303 -0.0149899805 -0.022857249 -0.024647662
0.111161046 -0.02773086 -0.04276529 -0.040586114 -0.025554568 -0.02813271 -0.026689045 -0.025151636
-0.12589082 -0.029618083 -0.035690304 -0.031004444 -0.030223629 -0.019919189 -0.012184873 -0.03589454
-0.02818069 -0.047156394 -0.020964965 -0.0292823 -0.023980137 -0.0046414314 0.29002285 -0.023900244

transformer.layers.0.0.fn.norm.weight f4 [64]
00000000: d596 613c 7554 8436 5fdd 6daf d620 233e
00000010: 73ab 1d33 70a0 a7b9 8616 16b3 b9e4 7fba
00000020: c806 2b3b 8063 01b4 b01b 113c 6cbb 38b9
00000030: 1f95 a4b9 3089 173b 88df 5e37 0f64 9832
00000040: 8175 f037 6c6e 8532 5c64 0d35 291e c8b3
00000050: 7e3f 7a34 e87d c731 60af 9d38 ad1b 9a3b
00000060: 82fc edb0 f744 8833 5e63 6b34 34d0 d5b4
00000070: 9c87 c634 076f 46b9 7fb2 22b5 6e3a 5ab3
00000080: 0c84 03b6 70ca 3e35 ab67 1c3b 61d6 77b9
00000090: b950 b0b4 55a8 d736 a6b6 4c37 0c79 4036
000000a0: 883f bcb9 1ee8 82b4 39f0 5f3a 7640 d3b3
000000b0: 4e67 04b7 84cb 7c37 61a4 8132 9896 84b2
000000c0: 347e 50ba effe 4f37 fe0e 2839 5341 40bb
000000d0: 9b3d dc35 5994 4e31 9ada 8e34 2472 bf36
000000e0: 0706 6a34 2607 fa39 67ca e6b2 fd0a 0336
000000f0: ceeb b4b6 14ca 0eb8 e901 c03e 8e33 2faf
0.013768871 3.9437386e-06 -2.1633671e-10 0.15930495 3.6710343e-08 -0.00031972257 -3.494508e-08 -0.00097615604
0.0026096571 -1.2050259e-07 0.008856699 -0.00017617428 -0.0003139162 0.0023122542 1.3284276e-05 1.774063e-08
2.8664947e-05 1.5533452e-08 5.2672635e-07 -9.318712e-08 2.3306163e-07 5.805976e-09 7.5190095e-05 0.0047030062
-1.7315787e-09 6.345538e-08 2.192223e-07 -3.982583e-07 3.6979043e-07 -0.00018924112 -6.060945e-07 -5.0810222e-08
-1.9597383e-06 7.10751e-07 0.0023865502 -0.00023635618 -3.2841288e-07 6.4270957e-06 1.2201874e-05 2.8680688e-06
-0.0003590549 -2.4383274e-07 0.0008542571 -9.8371785e-08 -7.891866e-06 1.5067755e-05 1.5092327e-08 -1.5435305e-08
-0.0007953376 1.2397518e-05 0.00016027314 -0.0029335811 1.6409207e-06 3.0061271e-09 2.6608615e-07 5.7055313e-06
2.1795141e-07 0.00047689042 -2.6867566e-08 1.9526917e-06 -5.3918693e-06 -3.4043638e-05 0.37501457 -1.5934473e-10

transformer.layers.0.0.fn.norm.bias f4 [64]
00000000: b0a8 f0ba cca4 3836 aea2 d6ae c720 dbbc
00000010: caa6 1db3 5c04 c038 2219 d831 ab08 cab9
00000020: a675 65ba 82ea 4e30 d429 58bb d30a bab7
00000030: 6934 f6b8 7147 0c3c 1fc0 d535 a94c 00b3
00000040: 79d0 e0b6 a6fa 2034 4206 3fb3 a5f6 3532
00000050: 284e e1b0 1cdb 1131 428a e4b8 9b94 aaba
00000060: 4d95 04b0 a065 cc33 aa6d b132 40e3 8333
00000070: fe68 b934 fbd9 ae38 33af 34b6 e46e 8533
00000080: 2fdc 8234 a2da 1135 94c8 7c39 5c6f b938
00000090: a6b5 b134 8a4d 9635 3eb5 52b5 dd12 6b35
000000a0: 7fb3 c03a a708 0bb3 7ea5 16b9 b3e7 8134
000000b0: 9e06 ff36 757a b036 cf60 8732 2b95 fe30
000000c0: cf92 0ebb 5327 cbb5 85e4 1f39 d5e2 4bba
000000d0: b05f a2b4 231c b432 e7b4 c9b3 eadd cf34
000000e0: ba5a f3b4 a476 dfb9 ce53 85b2 d6dc 2c35
000000f0: e9ee 83b5 b0a8 b238 37ea 6dbd 978b 002d
-0.001836082 2.751406e-06 -9.760491e-11 -0.026749028 -3.6706105e-08 9.1560854e-05 6.2892846e-09 -0.000385349
-0.0008753188 7.527562e-10 -0.0032983916 -2.2177968e-05 -0.00011739956 0.008561955 1.5925651e-06 -2.9872044e-08
-6.6999896e-06 1.4992347e-07 -4.4476344e-08 1.0591667e-08 -1.6393118e-09 2.1224826e-09 -0.0001089764 -0.0013014259
-4.823349e-10 9.517976e-08 2.0655381e-08 6.1414994e-08 3.4535327e-07 8.3375686e-05 -2.692407e-06 6.213466e-08
2.4374592e-07 5.433486e-07 0.00024107314 8.84223e-05 3.3100986e-07 1.1198438e-06 -7.849484e-07 8.757177e-07
0.0014701932 -3.237133e-08 -0.00014366765 2.4196706e-07 7.6003626e-06 5.2594646e-06 1.5760092e-08 1.8523328e-09
-0.0021754985 -1.5136123e-06 0.00015248552 -0.0007777636 -3.0244473e-07 2.0967553e-08 -9.392698e-08 3.8718218e-07
-4.532829e-07 -0.0004262227 -1.5521348e-08 6.439635e-07 -9.829793e-07 8.519122e-05 -0.058084693 7.306953e-12

transformer.layers.0.0.fn.fn.to_qkv.weight f4 [192, 64]
00000000: 7ce1 0cb6 c3b3 bf30 f429 28b4 0c3c fa36
00000010: dbf4 ce2c 799c a532 1393 4530 a039 2db3
00000020: 340e ce32 6030 55ac c416 a4b8 88da bdb1
00000030: d9bf c632 d996 2f36 9c7f 56b1 a2a1 45ab
00000040: 34c8 dfb1 c6c0 b62d a485 86ae d3f6 282d
00000050: 59a8 f02f 3252 2baa 867e 94b3 477c b1b6
00000060: eaa0 23aa bcb0 5633 9de2 dead 7a30 80ae
00000070: b253 5d2e a5dd a5b1 5612 b3ae 3b3f 892d
00000080: 90bb 152f d314 8f2f 9721 6535 79fa df32
00000090: 1619 87b1 0767 4031 e043 fa30 ecfd 88af
000000a0: d11b 0c35 3a9d aa2e 5792 c3b2 ef8d 2e2f
000000b0: f45f 9ab0 bad2 5730 45fd 252d e85d 97ac
000000c0: 03c8 d033 ece9 65b0 e760 1e32 522e cab4
000000d0: bf14 aeaf fee2 6eac eaa1 bead a97b 82b0
000000e0: 112e e2ae bdfd f6b6 4265 4430 73b0 6a2f
000000f0: 7b70 4430 dd21 3bb7 0fa4 4137 f988 6fae
00000100: 4bad 53b4 8eef 87af 42bd 09a8 f4b2 8236
00000110: daa1 fcaf 5960 0c32 4a62 9831 a36e 49b4
00000120: 50c9 6a33 2e85 a82b 3430 a936 7473 6c31
00000130: 8053 0fb4 4862 9035 9bda 0030 6efe 6eab
00000140: d921 e8af 61e4 13b3 dc97 e82e 2541 b630
00000150: 143f fbb2 fb84 c42a 99f1 90b2 4aff b9b5
00000160: ebf2 95a9 e5a8 3bad 045d a0ad 8417 40ae
00000170: 32aa 54ad cfa4 ed31 7852 f433 fe10 152d
00000180: 284b 242f b3ba a22f b861 9334 76af ff32
00000190: cd8f b92e b816 162e 849a ff2f ae3a 49ae
000001a0: 2e28 5234 b703 022e ef3d c432 ee24 09ae
000001b0: e252 a9af 3fe4 642e 7e55 d72a 5de4 f2ab
000001c0: 543c f033 9427 8baf cbd4 77b0 f65c b434
000001d0: 31c4 8bae 79a2 392b 6a92 532d 587f baaf
000001e0: 744d 13ae 6e8b 9133 dc39 adb3 d0b6 e9ad
000001f0: a6ea 922d e84b 0db2 9a5d 5c36 581c 0526
00000200: 5a9e 26b9 e896 46ae 21a9 99a6 8c1a 9134
00000210: 44ed aca9 428d e52f b1a6 d3a9 4b0e 3ab7
00000220: aa39 3db6 049e 21a9 0b34 0f32 d406 8430
00000230: 47b1 7cb6 bb7a 90b4 347d 6f2c 1405 01a9
00000240: 1cc1 8dad 57f5 52af 740d db2b 8560 4aa9
00000250: 65b4 30ab c9af 84a7 b739 7f30 ff37 8cb2
00000260: 0022 00a8 7eaf f934 1566 b3aa c0ea a0ac
00000270: bb18 99ab c8e1 2c30 a202 dfab 04da 8729
00000280: 79bf 17ac cb03 192b f88d 2633 a9e4 9f2f
00000290: 5f9e 4a2c ecfa 642d b69d ac2e 02ed c4ac
000002a0: 913c 1831 0cc2 2329 0ebe d430 cc27 d62b
000002b0: c0d2 4eae 87cc 22ae 2bc2 afa8 42bd 76a8
000002c0: 2c95 3b31 3d02 9b2d 379a 9baf dd46 13b1
000002d0: 660a 11ac 9b41 f1af b503 52ac 618e 772d
000002e0: 3d0c 64ac aed9 65b0 637a b028 3866 472d
000002f0: a26f 002b ba48 79b7 b071 da33 7a65 e125
00000300: bde4 9730 0622 8fac f16a 2a25 a160 1832
00000310: c6ce 8725 9a62 db2d cb16 4030 4f98 ac31
00000320: de78 2130 95db 7734 e7c6 1831 6f4b 092e
00000330: 480a 90ad 7429 812f 369c 1f2d 7625 0f27
00000340: 7339 cd2c 03da 5ea9 b06b 2a32 bdf8 24a9
00000350: 6d12 61b8 9694 062e 22c8 322f 39e5 0cb8
00000360: 60cd b3a5 0583 0534 4276 8e29 ac5c 05ab
00000370: a918 8fa9 2aff 8e2e f9db c7aa 7e59 1aaf
00000380: 882f 0a2b b5e9 08ab f1f7 91b0 d414 34ae
00000390: d70f 442f 100c 14ad a47f 9c2c 5d6a a6aa
000003a0: 0472 79b0 d282 93a7 1be8 d02c c6d2 d6aa
000003b0: f460 10ac 90ec 63ac ce0a 4728 b85f 18af
000003c0: 8338 e5af 9f94 2329 87e0 78af 9d05 37b6
000003d0: a61c eeaa e77b 98a8 23b2 f1af fd4d 21ac
000003e0: a222 3e2b 3beb deaf ba1f 75a9 bbbd ff2b
000003f0: f535 61ab 5679 f032 ca29 90b2 5fd0 4cb0
-2.0992875e-06 1.394817e-09 -1.5661482e-07 7.457571e-06 5.8820566e-12 1.9279684e-08 7.187719e-10 -4.033211e-08
2.3988015e-08 -3.0295974e-12 -7.82437e-05 -5.525468e-09 2.3137476e-08 2.6164837e-06 -3.1213636e-09 -7.021277e-13
-6.5129147e-09 2.0776613e-11 -6.117354e-11 9.6045e-12 4.3775364e-10 -1.5216368e-13 -6.9148015e-08 -5.289479e-06
-1.4533137e-13 4.9986497e-08 -2.5339114e-11 -5.829377e-11 5.032392e-11 -4.82733e-09 -8.143235e-11 1.5603177e-11
1.3618107e-10 2.6026345e-10 8.535803e-07 2.6074519e-08 -3.931869e-09 2.7998242e-09 1.8209185e-09 -2.4918678e-10
5.219454e-07 7.758634e-11 -2.2767535e-08 1.5875633e-10 -1.1232246e-09 7.8516005e-10 9.435401e-12 -4.302104e-12
9.722137e-08 -8.364214e-10 9.2188435e-09 -3.7659134e-07 -3.1665157e-10 -3.394784e-12 -2.1672403e-11 -9.493891e-10
-1.0285473e-10 -7.3609103e-06 7.144828e-10 2.1344863e-10 7.146423e-10 -1.1153953e-05 1.1541894e-05 -5.4463965e-11
-1.971395e-07 -2.472657e-10 -7.6460665e-15 3.895135e-06 -4.5953535e-10 8.1709794e-09 4.4349564e-09 -1.8759833e-07
5.4665463e-08 1.1974083e-12 5.042204e-06 3.4408147e-09 -1.334829e-07 1.075744e-06 4.6876786e-10 -8.490768e-13
-4.2224604e-10 -3.4433814e-08 1.0577114e-10 1.3260758e-09 -2.924893e-08 3.4908868e-13 -1.6873672e-08 -1.3857873e-06
-6.659069e-14 -1.06672214e-11 -1.8231201e-11 -4.3676632e-11 -1.2088596e-11 6.9163444e-09 1.13771364e-07 8.4734424e-12
1.4942414e-10 2.9600286e-10 2.7451983e-07 2.9765697e-08 8.43837e-11 3.412623e-11 4.649402e-10 -4.5754227e-11
1.9572391e-07 2.9561877e-11 2.2845567e-08 -3.1182994e-11 -3.0799813e-10 5.204392e-11 3.8250994e-13 -1.7258518e-12
1.11868445e-07 -2.5312075e-10 -9.0160474e-10 3.359525e-07 -6.355839e-11 6.595068e-13 1.2026472e-11 -3.3923686e-10
-3.3492722e-11 6.777451e-08 -8.066465e-08 -2.6570218e-11 1.6702483e-11 -8.224539e-09 3.2837038e-06 4.618206e-16
-0.00015889984 -4.515402e-11 -1.066235e-15 2.702767e-07 -7.6794934e-14 4.1755227e-10 -9.399199e-14 -1.1089792e-05
-2.819676e-06 -3.5886238e-14 8.335529e-09 9.606205e-10 -3.7654115e-06 -2.6911388e-07 3.4033444e-12 -2.864816e-14
-1.6115602e-11 -1.9186551e-10 1.556462e-12 -4.4936728e-14 -6.277811e-13 -3.6827946e-15 9.285048e-10 -1.632361e-08
-7.1128e-15 4.6507552e-07 -3.186762e-13 -4.573536e-12 -1.0878168e-12 6.289409e-10 -1.5845834e-12 6.033024e-14
-2.156468e-12 5.4361783e-13 3.8779007e-08 2.9084404e-10 2.879384e-12 1.3016015e-11 7.8496695e-11 -5.596968e-12
2.215334e-09 3.636158e-14 1.5479047e-09 1.521666e-12 -4.702616e-11 -3.7016192e-11 -1.951311e-14 -1.3696782e-14
2.7296876e-09 1.7622454e-11 -2.8303912e-10 -2.1431596e-09 -2.0611512e-12 -4.388426e-10 -2.9844853e-12 1.4071939e-11
-3.2407542e-12 -8.3619056e-10 1.9593002e-14 1.13345375e-11 4.5629657e-13 -1.48584895e-05 1.0172096e-07 3.9100041e-16
1.1051707e-09 -4.068082e-12 1.4781383e-16 8.869535e-09 2.3558882e-16 2.4941205e-11 6.9881584e-10 5.0231743e-09
5.874322e-10 2.3083551e-07 2.2231974e-09 3.1217192e-11 -1.637547e-11 2.3494418e-10 9.072789e-12 1.9865544e-15
5.8328286e-12 -4.9482997e-14 9.919788e-09 -3.663106e-14 -5.366134e-05 3.0600043e-11 1.6260107e-10 -3.359208e-05
-3.1190718e-16 1.2434255e-07 6.326581e-14 -4.73797e-13 -6.3547536e-14 6.5027386e-11 -3.5502138e-13 -1.4038012e-10
4.909341e-13 -4.864124e-13 -1.0620608e-09 -4.094576e-11 1.7831724e-10 -8.415504e-12 4.4479576e-12 -2.9561328e-13
-9.07477e-10 -4.094253e-15 5.9374844e-12 -3.816029e-13 -2.051745e-12 -3.2389959e-12 1.1049062e-14 -1.3858326e-10
-4.169501e-10 3.632218e-14 -2.2635237e-10 -2.7272392e-06 -4.2297172e-13 -1.6929124e-14 -4.3964218e-10 -2.2922768e-12
6.754962e-13 -4.0548706e-10 -5.4428447e-14 1.8171501e-12 -8.001094e-13 2.7994854e-08 -1.678281e-08 -7.451088e-10

transformer.layers.0.0.fn.fn.to_out.0.weight f4 [64, 64]
00000000: 6529 10bc 02d6 75bb f1a9 a5b9 d93c 2eba
00000010: 0844 fd39 1341 9ab9 eeb1 9fba 02ff 0abb
00000020: b117 a2b8 cd6f a539 928b 7ab9 4316 c9bb
00000030: 0bdc 243c 07ed f3bb f37c df3b 6b18 a2bb
00000040: 3be5 2538 7317 f5b4 cdb9 8f36 cce7 b339
00000050: 8e0d 133c d7fe 043a bda8 063a c2a8 9d3a
00000060: 750f 6f3b c4b7 333b f8a7 64ba e635 03ba
00000070: eff1 1ebb 07fa 6c39 df6c 66bb 5b71 ad39
00000080: 135e c838 f4a9 a1ba 7540 f93a 0612 97ba
00000090: 1deb a439 07cb 31bb 571e d938 d56a acbb
000000a0: 4617 813b 5110 0dba f701 7f3b 50c2 c73a
000000b0: efa9 ba3a 4fae 07ba e6c9 0cbb eb80 f63a
000000c0: 1675 97bb 902e 53ba 5594 6f3a 5404 d03b
000000d0: 0905 343a a7fd 12b9 04fa c139 1de6 4bba
000000e0: cfa1 b3ba a437 2a3a 3566 adb6 3f5f 9c3b
000000f0: 68a8 fd3a 1645 553a 053f 53ba 4d24 cdb8
00000100: 6367 dc39 9676 c5b8 c0b9 0eb9 976e f639
00000110: c493 b7b9 2f9b 45b9 3375 1aba 85db 973d
00000120: 91b8 3fb8 2770 0d39 2144 fbb8 51cb b7ba
00000130: e77d 5439 6a77 8f39 1ef9 08ba 55e2 a0b8
00000140: a1af 7537 05d8 f9b4 8cf3 c735 dff8 61b9
00000150: b470 75ba 3be2 d3b9 ad80 d2b9 efa0 123a
00000160: fc1c 933a ad92 7a39 3b46 4739 9387 b639
00000170: 2232 41b9 8c5c 0539 e945 8b39 7106 7839
00000180: 6f4f 6838 bb17 22ba 56da fcb7 0b34 fbb9
00000190: 34b5 0039 14db 5ab9 d69e 3638 94de c9ba
000001a0: 7f8e db3a 65fd 15ba e1c1 1eb9 2618 4f3a
000001b0: 1a2c ba39 44df be39 b959 43b9 8226 2e3a
000001c0: 0c94 4eb9 fef4 ca39 d2c0 84b9 d837 8838
000001d0: 44ea f139 3f02 8ab8 80ab 1f38 d8aa 98b9
000001e0: 5e58 3bba a9e4 90b9 787c 9db6 2b34 fab9
000001f0: b97c 3eb9 aede c739 1119 e6b9 2f2d d4b8
00000200: 6f08 bebb bb69 8bbb e8ef fbb8 a0e4 6eba
00000210: 7c11 ff39 9214 95b9 1d38 9b3a 4cb5 c23d
00000220: c629 82b7 f974 0339 9040 bcb8 4bcf cfba
00000230: abf5 ae3b bd68 c2bb 7a5a c13b 18f5 97bb
00000240: b5bf c537 7ea9 27b6 e5db 4637 ee40 ca3b
00000250: bd60 d23b 9002 203a 582b 9739 155d 0f38
00000260: 7a43 97bb 8ef7 623a e4a3 9eba 7883 d3b9
00000270: 026a 78b9 f683 9139 0258 97bb d4aa 4fbb
00000280: c53b bdb7 ae2e 5a39 4fc2 e13a b7a5 a8b9
00000290: d906 e9ba 52e5 4bba a108 86b8 8a9d 2c3b
000002a0: 176c d33b 779f c93b 3b57 b23b a216 4c3b
000002b0: f519 0cbb 4185 beb9 ae23 1738 f30c e939
000002c0: b6b2 8abb 6127 8cba 7ad5 a93a 32fc ac3b
000002d0: 5fd3 9739 c58d 02bb dc5e 24b9 78d3 293b
000002e0: d3fd 80bb 3cab 5b3a a555 deb6 bb36 ba3b
000002f0: 908c aa3a 3731 ba37 5588 4fbb 7618 9db8
00000300: 0cdd 29ba e8eb 223b 5f4e a1b9 cf2c db3a
00000310: 44fc e9ba 80cd 7d3a 93f8 1ab8 0b9a a23e
00000320: 2b7a c5b8 4baf 9f39 4a69 8db9 d75e 6abb
00000330: 4656 433b 6d08 1f3b 3d16 5abb 3c29 1a3b
00000340: b289 a737 7e94 ec36 bba8 d0b4 a36f ad3b
00000350: 9320 85ba 2b91 fbba f035 b2b9 2a56 863a
00000360: fcfa 01b9 c67d 6d3b 75c3 bc3a 489b 0f3a
00000370: b3be 8dbb 1d56 b839 9602 c63b 2791 c73b
00000380: eeb3 a538 9bbc 6bba 3ee4 e839 0cb9 14ba
00000390: 932d 9eba cee9 78bb caa5 0338 db67 45ba
000003a0: 71f8 103c ef10 873b c473 a6bb f25a 783b
000003b0: a465 ed3b b77a 153a 9a9b 8fbb 437b 043b
000003c0: 069d f73a d97b e73a f6bd ddba 7a9b fdba
000003d0: d34d 843a 5d1b d2ba 2927 243b a382 eabb
000003e0: 99df 90bb faae c0ba c2a7 1b38 f6de dfbb
000003f0: 53be d43a 7a64 383a c228 57bb 40f5 2e39
-0.008798932 -0.0037511592 -0.0003159787 -0.000664664 0.00048306608 -0.00029421653 -0.0012183764 -0.0021209125
-7.729175e-05 0.0003155455 -0.00023893852 -0.006136687 0.010062228 -0.0074440273 0.006820315 -0.0049467585
3.9552553e-05 -4.5651868e-07 4.283362e-06 0.00034314243 0.0089754 0.00050733745 0.00051368383 0.0012028443
0.003647772 0.0027422765 -0.0008722539 -0.0005005285 -0.002425309 0.00022599856 -0.0035160107 0.00033081588
9.554266e-05 -0.0012333975 0.0019016402 -0.0011525757 0.0003145569 -0.002712907 0.000103530176 -0.005261759
0.003939542 -0.00053811545 0.0038911083 0.0015240405 0.0014241318 -0.00051758153 -0.0021482646 0.0018806731
-0.004622112 -0.00080559496 0.00091392297 0.006348172 0.00068672054 -0.00014018138 0.00036998105 -0.0007778125
-0.0013704839 0.00064932765 -5.1677002e-06 0.0047720964 0.0019352557 0.00081356 -0.0008058402 -9.781923e-05
0.000420387 -9.4157804e-05 -0.00013611373 0.00047003172 -0.00035014574 -0.00018845194 -0.0005892098 0.07414917
-4.570984e-05 0.00013488588 -0.00011981303 -0.0014022385 0.00020264798 0.00027364056 -0.00052251096 -7.671552e-05
1.464403e-05 -4.653704e-07 1.4897537e-06 -0.00021550384 -0.00093628024 -0.0004041361 -0.00040150192 0.0005593439
0.0011223848 0.00023896499 0.00019004282 0.00034814756 -0.0001842459 0.00012718345 0.00026564233 0.00023653523
5.538709e-05 -0.00061833457 -3.0142412e-05 -0.00047913226 0.00012274535 -0.00020871713 4.354011e-05 -0.0015401416
0.0016750841 -0.00057216577 -0.0001514028 0.0007900022 0.00035509543 0.0003640597 -0.00018630073 0.00066433114
-0.00019700843 0.00038710976 -0.00025320664 6.495387e-05 0.00046141644 -6.580771e-05 3.8068276e-05 -0.00029118988
-0.00071466516 -0.00027636185 -4.6934547e-06 -0.00047722584 -0.00018166275 0.00038122147 -0.00043887694 -0.00010117364
-0.005799345 -0.0042545474 -0.00012013299 -0.0009113047 0.00048650417 -0.0002843482 0.0011842285 0.09507236
-1.551666e-05 0.00012536709 -8.976564e-05 -0.0015854625 0.0053393445 -0.005932896 0.005900678 -0.0046373717
2.35735e-05 -2.4983597e-06 1.1852918e-05 0.006172291 0.0064202235 0.00061038975 0.00028833258 3.4180546e-05
-0.004616198 0.00086581043 -0.0012103287 -0.00040343008 -0.00023690614 0.00027754874 -0.0046186456 -0.0031687515
-2.2558388e-05 0.0002080749 0.0017224046 -0.00032166924 -0.001777853 -0.0007778007 -6.391225e-05 0.0026339018
0.0064520943 0.006153043 0.0054425276 0.003114142 -0.0021377776 -0.00036338906 3.6034435e-05 0.0004445087
-0.00423273 -0.0010692888 0.0012957298 0.0052790875 0.00028958448 -0.0019920927 -0.00015675597 0.0025913399
-0.003936508 0.0008379703 -6.626086e-06 0.005682794 0.0013011862 2.2195845e-05 -0.0031666954 -7.4908996e-05
-0.0006479777 0.002485985 -0.00030766704 0.0016721728 -0.001785167 0.0009681806 -3.6947964e-05 0.3175815
-9.4164476e-05 0.00030457447 -0.00026972062 -0.0035762095 0.0029806062 0.0024266497 -0.0033277415 0.0023523113
1.997207e-05 7.050635e-06 -3.8865787e-07 0.005292849 -0.0010156803 -0.0019193044 -0.00033990992 0.0010249068
-0.00012395898 0.0036238297 0.0014401512 0.0005478156 -0.0043257116 0.00035159374 0.0060427887 0.0060903016
7.9013276e-05 -0.0008992643 0.00044420542 -0.0005673326 -0.0012068026 -0.0037981155 3.1387237e-05 -0.0007530429
0.008848296 0.0041218917 -0.0050797183 0.0037896005 0.0072447825 0.0005702185 -0.004382563 0.0020215071
0.0018891401 0.0017660811 -0.0016917575 -0.0019348704 0.0010093994 -0.0016029883 0.0025047755 -0.0071566864
-0.004421186 -0.0014700585 3.7111116e-05 -0.006831999 0.0016231037 0.0007034015 -0.003283069 0.00016685296

transformer.layers.0.0.fn.fn.to_out.0.bias f4 [64]
00000000: ab38 babd 4e75 9fbd 2aa5 8dbd c98f 36bc
00000010: 8860 acbd 9f07 ddbd aa3f 92bd 1205 99bd
00000020: 5530 a4bd 49b2 78bd 7bc3 7ebd 1368 dfbd
00000030: b91b bebd f374 c3bd bc36 92bd a18e d2bd
00000040: e785 dabd 14cf 94bd 6a67 83bd 5b8e 9abd
00000050: 9057 b7bd dbff 8dbd 7661 27bc daa1 8cbd
00000060: d382 8bbd 9a1f a7bd 5ec0 98bd 863f 9cbd
00000070: f892 98bd 4098 b7bd 4ab0 8bbd 7e88 b2bd
00000080: 4959 bfbd 24e3 b0bd c974 cabd 846b b3bd
00000090: 93e7 95bd cd50 9dbd 89b4 b0bd 4a2a 9cbd
000000a0: 0157 17bd b064 90bd 3d17 84bd 3492 acbd
000000b0: 256f 6ebd f19a acbd c923 94bd 1452 92bd
000000c0: e602 a93a 746c acbd 38ab 8bbd fd60 8dbd
000000d0: b2f5 99bd 3aa2 8fbd 272b 92bd d673 51bd
000000e0: 0acf babd 474b 4cbd 9e38 84bd 3e95 90bd
000000f0: cad0 b3bd 4bf0 a4bd 0c38 2039 1b06 a6bd
-0.0909284 -0.07786046 -0.06916268 -0.0111426795 -0.084168494 -0.10792469 -0.07141049 -0.0747167
-0.08017031 -0.0607169 -0.062198143 -0.109085225 -0.092826314 -0.09543791 -0.07139346 -0.102811106
-0.10670071 -0.072660595 -0.06416209 -0.075466834 -0.08952248 -0.06933566 -0.010216108 -0.06866808
-0.06812062 -0.081603244 -0.07458566 -0.07629304 -0.07449907 -0.08964586 -0.06820734 -0.0871744
-0.09343202 -0.08637074 -0.09885556 -0.08760741 -0.0731956 -0.07681427 -0.08628184 -0.076252535
-0.036948208 -0.070504546 -0.06449745 -0.084263235 -0.058211464 -0.0842799 -0.07233388 -0.071445614
0.001289454 -0.08419123 -0.06819767 -0.06903265 -0.07517566 -0.07013364 -0.07137137 -0.05113586
-0.09121521 -0.049876478 -0.06456111 -0.07059716 -0.08780058 -0.08053645 0.00015279668 -0.08106633

transformer.layers.0.1.fn.norm.weight f4 [64]
00000000: d20f 2635 73d1 e0ba 4add 8431 fb6b a03e
00000010: 205a c32f 208f 3035 a1f4 f9b7 45c3 9eb5
00000020: c5bc 8737 d6c6 4fbc a33d 9328 0696 a5b7
00000030: d066 ea39 99ec 6e36 44d4 103a 388c 0fb5
00000040: 75ab 3e36 41af bab9 30f4 483c 3545 32ba
00000050: 7c9c 7e30 0cfc 7937 7ab3 7b3f 9ed8 1cba
00000060: aab9 9d32 fa72 c72a 54e5 8739 c13d c531
00000070: 051a 6436 76e8 17b6 9eca 00b4 5db6 f1bb
00000080: 18fb 9dba fffe 0139 ce65 9230 cee7 6cb4
00000090: 40eb 2d36 d38b e83c e8b5 c3ae 88fe 6d33
000000a0: 8adc b83e 2dbd fc35 1089 beb8 fde9 d7b6
000000b0: 6d8d 3829 0b4a d2bb 4f22 812f c788 efb5
000000c0: 798f 5033 7b8d 5ab5 21d2 af39 9342 87b6
000000d0: e874 0dbc ccf6 cab6 5e94 0d3a 8bad 8d2e
000000e0: fcbb 872d a8bc b738 7f9e fbb8 f0f2 89b0
000000f0: 39fd 2135 1d1d 4bb9 8e8c 5b3f 1f83 de33
6.186284e-07 -0.0017152264 3.8668633e-09 0.31332383 3.553433e-10 6.5773384e-07 -2.9797027e-05 -1.1828748e-06
1.6181157e-05 -0.0126816835 1.6347009e-14 -1.9739393e-05 0.0004470856 3.5602482e-06 0.0005524794 -5.3475696e-07
2.8412007e-06 -0.0003560726 0.01226525 -0.0006800474 9.262704e-10 1.4900241e-05 0.98320735 -0.0005983206
1.8361636e-08 3.5429282e-13 0.0002592007 5.740475e-09 3.3989793e-06 -2.2636063e-06 -1.199464e-07 -0.0073764757
-0.0012052981 0.00012397392 1.0651833e-09 -2.2063543e-07 2.5915942e-06 0.028386986 -8.8998864e-11 5.5412357e-08
0.36105758 1.883052e-06 -9.085436e-05 -6.434739e-06 4.0978875e-14 -0.006417518 2.348934e-10 -1.7846695e-06
4.855926e-08 -8.141721e-07 0.0003353516 -4.031064e-06 -0.00863383 -6.0488e-06 0.00054008316 6.442765e-11
1.5431205e-11 8.76126e-05 -0.00011998135 -1.0037109e-09 6.034566e-07 -0.00019370434 0.85761344 1.03615314e-07

transformer.layers.0.1.fn.norm.bias f4 [64]
00000000: df03 3634 b65d 37ba 6305 86af 83dd dabd
00000010: 7ecc 99b1 49be 0cb6 02ba b737 e2ae ed34
00000020: 6238 a7b6 9e3c 313a ce84 01a8 1710 bf36
00000030: 74e7 ff38 19b2 a335 2169 c437 1fe8 a434
00000040: 98e0 d5b6 d233 3339 9ceb eb3a 48b9 2338
00000050: 27a6 15b0 3d65 bbb6 5698 bb3d 4bc1 7dbb
00000060: 79ce 77b2 8aad 7228 5936 72b9 a4e9 bbb0
00000070: 771c 5ab9 28da ffb4 3003 29b2 c888 99ba
00000080: cf33 7339 601e 9a38 d4bb 05b0 fab5 8233
00000090: cb00 0137 51aa 293c ca1d 3ead e67c 3333
000000a0: 5be1 723d 0e35 0eb3 5743 3239 200c b436
000000b0: 48d3 3ea8 9032 dd3a 84ba 01ae 41d3 0735
000000c0: a79f cbb3 1990 11b5 2527 dab8 3ed8 2236
000000d0: d193 2cba caf1 1a37 f729 3cb8 d5b4 8eae
000000e0: c0db c62c 7ecb daba 7943 c738 a9c0 18b1
000000f0: eda2 3c35 348b 98b9 ffdd 403e d62f df35
1.6951479e-07 -0.000699486 -2.4378286e-10 -0.10686781 -4.476134e-09 -2.0972386e-06 2.1901917e-05 4.4271934e-07
-4.9835517e-06 0.0006761047 -7.189736e-15 5.6941167e-06 0.00012202459 1.219628e-06 2.3413975e-05 3.071627e-07
-6.374041e-06 0.00017090075 0.0017999294 3.9034785e-05 -5.4442e-10 -5.58482e-06 0.09159915 -0.0038719948
-1.4424239e-08 1.3471329e-14 -0.00023099165 -1.3672445e-09 -0.00020800704 -4.765618e-07 -9.8378194e-09 -0.0011713738
0.00023193586 7.34895e-05 -4.865204e-10 6.086698e-08 7.689184e-06 0.010355548 -1.0806864e-11 4.179028e-08
0.059296947 -3.3110204e-08 0.00017000489 5.3658296e-06 -1.0592933e-14 0.0016876031 -2.9496863e-11 5.0598834e-07
-9.481965e-08 -5.42264e-07 -0.00010402341 2.426575e-06 -0.00065833057 9.235411e-06 -4.4861776e-05 -6.4895346e-11
5.6518956e-12 -0.0016692725 9.501627e-05 -2.2228426e-09 7.0272546e-07 -0.00029095414 0.18834685 1.6628717e-06

transformer.layers.0.1.fn.fn.net.0.weight f4 [8, 64]
00000000: b65d 1033 ee05 c138 3130 03b0 2db1 c3bb
00000010: 6027 572f 25a5 3cb5 eb74 0b37 99e6 8132
00000020: 9da7 e0b5 cfdd a3b9 3c72 dca4 18dd 3a36
00000030: f0fb f836 a5d4 84b3 3d7b fc37 e4eb 8533
00000040: 4acb 72b4 bc25 1ab9 dbbc c13a 8207 7f38
00000050: d4e4 962f 5b60 5ab5 9021 7abb 4710 8c3a
00000060: 1184 4532 96bf 05a6 fc64 cfb7 3a00 3bb1
00000070: 12d2 0cb6 3b10 0f33 b5f9 d3b1 55fc bcba
00000080: a3aa f4b8 dc49 89b8 938a 32af 50f5 00b3
00000090: d9b2 0f35 4683 b2ba e1bd 8aac 8540 c0b3
000000a0: c40b fa3b d95d 0835 61f6 0c38 6530 44b5
000000b0: 66a0 4228 dd6c 58ba 0943 bd2e 530d f633
000000c0: 835b 9fb3 80fa cc32 51de 1738 0cac 1335
000000d0: 0a08 8839 c2c5 4435 8ceb ae38 2bdc 6f2c
000000e0: f705 842d d1ee 6ab9 b8e3 d5b7 43b5 bcad
000000f0: c4f9 3934 e6f4 c933 4d79 cfba ab7c eb34
00000100: d8ad 8032 7600 09bb ad9a af30 db6c 6fbe
00000110: 26ba 5eb1 7f9c 6436 bfd8 f636 1517 04b6
00000120: 8938 5db6 ea3c 8fbb 4412 7d28 a1d2 e6b6
00000130: 1d14 3c39 226d f1b5 c8b1 3b39 2910 cf34
00000140: 4f6f adb6 1a13 13b9 dddc 4e3b bc3d 8bb9
00000150: 917c ebb0 7f76 4937 0265 91be 011d 50bc
00000160: b278 4833 e9a1 1caa 5be6 11b9 2890 6031
00000170: 89e6 cd38 4ded 2136 e20f f4b2 1091 323c
00000180: e775 803a 50b5 5739 8948 73b0 4a9e be34
00000190: b594 c436 e68a ab3c bf32 b12e 51c3 df34
000001a0: 0839 8e3e d051 1b36 a6d4 87b7 9345 2837
000001b0: d284 9228 7899 943b 8f43 f7af 0a44 5bb6
000001c0: e2b8 8234 40a8 18b6 5693 2bba c980 79b5
000001d0: 3038 a63b 8379 8ab7 6fcd 1ab9 71de 86ae
000001e0: 26d1 9bae 45c0 cc3a 59d3 5839 d299 f130
000001f0: c6c8 ebb5 51ef d5b7 fe00 113e 160d afb6
00000200: 0fe1 beb2 ac9d 24b8 8e86 c42e 2c73 3fbb
00000210: 6bba 06af c8fe 9db3 4eea 1b36 2a15 1e35
00000220: d0ae 8334 4a82 0bba 802e a8a5 b158 4bb4
00000230: 998b 2438 d71f fdb2 406c 1938 fe2c 9fb2
00000240: e356 0c35 0eab 7537 50b7 d039 50c7 67b8
00000250: 4525 1a2f 456d 6135 c27b c3ba c05d b33a
00000260: dc4b 5bb1 3690 15a9 f29b 9eb5 310d 14af
00000270: f840 3d37 3540 3a33 9d9b ec30 5421 c538
00000280: ad48 5a38 5561 29b7 f995 e8ad 91a4 dbb1
00000290: 9089 c034 cf3b 263a 64c7 a7ac bad9 4ab3
000002a0: 09ca 673b 7961 05b4 0c82 bab6 ac6d 8634
000002b0: 0b23 d426 6111 70ba 5ff4 772d 2265 7c34
000002c0: c2fb e8b1 2bd0 e8b2 2283 0a39 9d10 83b4
000002d0: 8ed3 2fb8 14ef d834 56b2 9eb7 3ef0 442c
000002e0: 826e bfac f5b1 5037 2382 01b6 6d56 052e
000002f0: 3fdf 37b3 c7fc b4b7 76ea 4eba 602f c0b3
00000300: 4ff9 dd33 7a25 12b8 f0eb f9ae 4257 6ebb
00000310: f3e5 5a30 7f2d b333 5d96 83b6 8317 26b3
00000320: 8b83 af35 432b 9e3a 6069 b226 301f 22b5
00000330: 57ec c037 5368 8eb4 472f f9b6 06c4 bab3
00000340: 1865 7235 467f a8b8 1ff9 163a 675b 0cb8
00000350: d480 d5ae 38b7 9e33 f77c 86ba e647 a0b8
00000360: aab1 a2b1 9789 a9a7 50a5 d536 b675 b1b0
00000370: 079f d137 3825 9233 792a 3ab1 b0e0 133a
00000380: 5604 66b9 e92c 5eb7 153c 5a2f 182f 6733
00000390: deed 04b6 857b 4cb8 694e 0b2c a5ff 0434
000003a0: 98fe e43b 8b09 7132 cee0 4cb7 f177 83b4
000003b0: e667 5326 f20b f7b8 9587 c6ad 56e4 57b3
000003c0: c385 35b2 4cc0 5333 1492 80b8 d238 c534
000003d0: 7647 38ba d0dd a5b5 636b 55b7 23bf 5d2d
000003e0: a528 82ad b4f4 6b39 234d 3cb7 287f 9e2f
000003f0: 7bcc 7ab3 720d 3c38 3d0b 33bb 811f 8bb3
3.3612842e-08 9.204062e-05 -4.7726006e-10 -0.0059720487 1.9568125e-10 -7.0275775e-07 8.312268e-06 1.512244e-08
-1.6738082e-06 -0.00031255043 -9.560331e-17 2.7844853e-06 7.4203053e-06 -6.185409e-08 3.0098128e-05 6.2362034e-08
-2.2611962e-07 -0.00014700642 0.0014781015 6.080373e-05 2.7447433e-10 -8.1351544e-07 -0.0038166977 0.0010686003
1.1496938e-08 -4.640329e-16 -2.4723347e-05 -2.721221e-09 -2.0983903e-06 3.3309544e-08 -6.1692966e-09 -0.0014418463
-0.0001166661 -6.5464264e-05 -1.6238237e-10 -3.0025433e-08 5.353191e-07 -0.0013619445 -3.9432767e-12 -8.952433e-08
0.007630797 5.0800514e-07 3.360806e-05 -7.3086113e-07 1.0803944e-14 -0.0008255968 8.606633e-11 1.1457691e-07
-7.42066e-08 2.386264e-08 3.6208254e-05 5.501213e-07 0.0002594593 7.3303465e-07 8.3408406e-05 3.408616e-12
1.5009312e-11 -0.00022404945 -2.5497618e-05 -2.1453622e-11 1.7320332e-07 9.4043386e-08 -0.0015828997 4.386287e-07
1.4980216e-08 -0.0020904816 1.2776887e-09 -0.23381369 -3.2411065e-09 3.406574e-06 7.356604e-06 -1.9682968e-06
-3.2964474e-06 -0.004371275 1.4048282e-14 -6.8790546e-06 0.0001793657 -1.7987661e-06 0.00017899938 3.8568513e-07
-5.16876e-06 -0.00014026128 0.003156475 -0.00026558142 -1.7133904e-09 1.2008123e-05 -0.28397375 -0.012702228
4.66759e-08 -1.3911757e-13 -0.00013914092 3.2678233e-09 9.818102e-05 2.4128997e-06 -2.8412561e-08 0.010898843
0.0009800763 0.00020571542 -8.8505964e-10 3.5505428e-07 5.858567e-06 0.020940255 8.0580424e-11 4.1679098e-07
0.27777886 2.314442e-06 -1.6192276e-05 1.0029779e-05 1.6266858e-14 0.0045348965 -4.4977042e-10 -3.2673147e-06
2.4348907e-07 -2.27477e-06 -0.0006545087 -9.2947135e-07 0.005072616 -1.6507465e-05 -0.00014763114 -6.133128e-11
-7.085736e-11 0.0015621266 0.00020678098 1.7578776e-09 -1.7567297e-06 -2.5503019e-05 0.14160535 -5.21693e-06
-2.2221256e-08 -3.924749e-05 8.93695e-11 -0.0029212935 -1.2253458e-10 -7.357227e-08 2.3233183e-06 5.8890384e-07
2.4527844e-07 -0.0005321844 -2.9174864e-16 -1.8938114e-07 3.9230657e-05 -2.9467556e-08 3.657886e-05 -1.8530496e-08
5.22805e-07 1.4642965e-05 0.0003980943 -5.5260316e-05 1.4019459e-10 8.397804e-07 -0.0014914202 0.0013684556
-3.1911815e-09 -3.320973e-14 -1.1817303e-06 -1.3465208e-10 1.1280405e-05 4.3364896e-08 1.7215488e-09 9.3999e-05
5.2042935e-05 -1.0095847e-05 -2.6441948e-11 -6.392448e-09 3.5862877e-07 0.00063413096 -4.7685623e-12 -4.722981e-08
0.0035368225 -1.242205e-07 -5.5583714e-06 2.5039242e-07 1.4719953e-15 -0.0009157863 1.4094586e-11 2.3506121e-07
-6.78071e-09 -2.7103018e-08 0.00013209556 -2.441274e-07 -4.1920277e-05 4.0407087e-07 -1.8918112e-05 2.7986636e-12
-5.4408153e-12 1.24392e-05 -1.9298247e-06 3.031746e-11 -4.281105e-08 -2.157538e-05 -0.0007893214 -8.949314e-08
1.03364634e-07 -3.4844015e-05 -1.136512e-10 -0.0036367928 7.9634715e-10 8.343613e-08 -3.921609e-06 -3.867127e-08
1.30768e-06 0.0012067336 1.2379793e-15 -6.0395087e-07 2.2998238e-05 -2.6525467e-07 -7.426282e-06 -8.6969564e-08
9.0299136e-07 -8.034571e-05 0.0005759168 -3.3463726e-05 -9.709003e-11 7.3907756e-08 -0.0010260631 -7.642787e-05
-4.7350186e-09 -4.70561e-15 6.3671396e-06 -1.29119e-09 2.4988794e-05 6.805425e-08 -2.7090705e-09 0.0005641086
-0.00021936125 -1.3242688e-05 1.984833e-10 5.382671e-08 -1.980799e-06 -4.8752427e-05 1.9796614e-12 1.2386461e-07
0.0069883578 1.4030216e-08 -1.2211689e-05 -2.448792e-07 7.334614e-16 -0.00011780103 -2.2570204e-11 -5.026626e-08
-1.05660005e-08 4.930216e-08 -6.130725e-05 3.6735452e-07 -0.00070296915 -1.2358014e-06 -1.2720792e-05 1.26048364e-11
-1.4797339e-11 0.00022502505 -1.1223633e-05 2.8830383e-10 -5.8393635e-08 4.4835215e-05 -0.002731993 -6.4784224e-08

transformer.layers.0.1.fn.fn.net.0.bias f4 [8]
00000000: 5a8f 67bb 1fb3 023e 0f17 9c39 d1d6 163b
00000010: c39a 053e 6655 48be 8de6 a73a f7ac 46be
-0.0035333247 0.12763642 0.0002977182 0.0023016224 0.13047318 -0.19563827 0.0012809798 -0.19401918

transformer.layers.0.1.fn.fn.net.3.weight f4 [64, 8]
00000000: e24b 303b 157d 36bd 81de 123b cf85 c03b
00000010: 2ab3 45bd 4926 8bbc b84b 6dba 4dc7 6bb9
00000020: b435 cfba 91b9 19bd 6485 093a 1f12 f53a
00000030: 9457 14bd d01a 12bd b4fb 33ba 549d 76bc
00000040: 38c1 1b3b fd89 2dbd 8875 c83a 8437 a43b
00000050: 9a6f 28bd 07b9 d3bc c64c 0bba 1cc3 8abc
00000060: 61da 483b f3e9 ae3d 99a1 2a3b a19c a23b
00000070: 3d31 ae3d 7c72 8f3d 3202 87b7 f902 fdbe
00000080: ae28 b53a 17ec 36bd a2b4 b439 58ce 123b
00000090: e692 14bd 80a2 08bd 881f d9b8 b0c4 d6bc
000000a0: d0d0 df3a eb74 74bd 2132 3dba d9c7 88b9
000000b0: 18e8 78bd 7021 8ebd b8b6 a2b7 94a1 0e3c
000000c0: a6b6 a03a 58b4 2ebd cd6f 8b39 4621 203b
000000d0: 0aa0 0cbd c36d 52bb ffa6 dfb9 216f afbc
000000e0: 2d18 3a3b c7d0 4bbd 4a28 8b3a 9be4 a13b
000000f0: 9d44 10bd c3a6 25bd 69a6 eab9 c7f8 c8bb
00000100: 162e 5f3b a74a 47bd 0703 fa39 c052 173b
00000110: 0178 5dbd 5361 98bc a5c3 e5b6 d71c 0bbc
00000120: a0fc 643a 9ad9 2ebd cfd7 d139 6fef 223b
00000130: 542b 26bd b8e7 ffbc 790f 2ab9 e08c 98bc
00000140: 94a2 2a3b 8a79 35bd fa00 c63a 0fb6 2d3b
00000150: dfcd 23bd ac1a 2dbd 25c8 09ba 417e dfbc
00000160: 7528 e6ba 3451 89bd 166e 4cba 7d97 623a
00000170: ec45 69bd 55aa b0bd d30d d8b9 cda9 43ba
00000180: 0b9c 4a3a 5fe0 a0bd 8efe 8839 aa69 2eb9
00000190: 0919 93bd 803d 6cbd f2de 65ba 8c7e 21bb
000001a0: 6a7b 603b ca70 65bd 4c0d 563a 0715 863a
000001b0: 94ab 69bd e156 53bd 3e78 8bb9 3e87 5bbc
000001c0: 8826 a03b facc 35bd bb69 f73a 0296 aa3b
000001d0: f202 3abd 491b 00bc 9443 f9b9 d1c4 84bc
000001e0: 9e3c 183a 7dbb 25be c592 bfb9 a1c8 edba
000001f0: b665 2bbe 96c2 80bd 7026 b339 1252 433e
00000200: 02ba fb39 6575 8abd 0c27 60b8 f44e 263b
00000210: 0131 8abd 7913 c1bc 0dea 3cba 64c5 043c
00000220: 9dd2 b33b e1fb 6bbd e4f8 4d3b 05bc f93b
00000230: 17f7 5bbd b5dc 93bc 21af 39ba 8178 31bc
00000240: 08b4 513b 02c1 1fbd 809a 6c3a c5da 6a3b
00000250: f2ef 29bd 44ef e4bc cd2b 9ab9 0083 1cb9
00000260: b7f5 383b 69db 7abd 672e 7e3a 8a0e 313b
00000270: 1bbb 6bbd 0d48 02bd e541 c6b9 db55 d9bb
00000280: 8eec 913a ec94 6bbd d680 1c39 e673 023b
00000290: 44e3 5cbd 9e56 23bd 70af fab6 9b91 83bc
000002a0: 9ee1 453b b4ef 45bd 79da 5c3a f1cc 203b
000002b0: bb1b 38bd 994f 0ebd 24ff 0bb9 af9f 5bbc
000002c0: c81c 16bb bd83 313e 4abb e3b9 cec1 d4bb
000002d0: 9b02 363e 4ebc f43e 3885 0ebb 727e 9a3c
000002e0: 46c0 473b d824 61bd f971 673a d6b5 5f3b
000002f0: c329 73bd 3c3f 1bbd fa0a b4b8 3dbe 333c
00000300: a0d5 df3a e757 37bd 4676 753a e9b1 0f3b
00000310: 8c58 3cbd 8ffe f1bc 4a99 feb8 0562 65bc
00000320: 7a36 a939 b2d0 5bbd 21b6 e3b9 6368 b33a
00000330: 81d7 61bd 42d9 54bd 777c f439 98d9 1dbc
00000340: d9e0 973b 6e0b 8abd 2bc8 093b dcd6 a33b
00000350: 0c94 84bd e8a5 56bd f983 08ba 4857 c9bb
00000360: cc7a ddba 80a8 16bd e6b9 d5b9 ce33 7db9
00000370: c2ec 25bd 28a8 0cbd 9929 93b9 7f0b dcbb
00000380: 557d fe3a c6ec 30bd 4f0d 6d3a a630 1f3b
00000390: 9de1 4bbd c3df 94bc 419c 61ba 58be 7a3c
000003a0: 162b 9dbb b993 a83d 079e 2dba fb0b 40bb
000003b0: 7379 c43d 0b21 a73d 3833 b7b9 04d9 a9bd
000003c0: abda cc3a 5316 3ebd 1f8b ae3a 9fae 533b
000003d0: aa7c 31bd 26cf c8bc 49b1 0eba 0104 41bc
000003e0: 8a72 0c3b 5a74 32bd 1744 833a fe69 2d3b
000003f0: 47b0 1ebd 77e8 13bc 34eb 74b8 55e9 8fbc
0.0026900698 -0.04455288 0.0022410455 0.005875326 -0.048266567 -0.01698603 -0.00090521155 -0.00022485592
-0.0015808851 -0.037530486 0.0005246012 0.0018697417 -0.036216334 -0.0356701 -0.0006865815 -0.015052158
0.002376629 -0.042367924 0.0015293816 0.005011501 -0.041122057 -0.025845064 -0.00053138693 -0.016938739
0.0030647742 0.08540716 0.002603626 0.0049625193 0.08505485 0.07004258 -1.6094276e-05 -0.4941633
0.0013821328 -0.044658747 0.00034466857 0.0022400822 -0.036272906 -0.033358097 -0.000103532395 -0.026216835
0.0017075781 -0.059681814 -0.00072172476 -0.0002608884 -0.060768217 -0.069399714 -1.939699e-05 0.008705515
0.0012261465 -0.042652458 0.00026595444 0.0024433895 -0.034332313 -0.003210888 -0.00042658296 -0.021415295
0.0028395758 -0.049759652 0.0010616865 0.004940582 -0.035221685 -0.04044224 -0.00044755943 -0.006133172
0.003405457 -0.04865518 0.0004768597 0.0023090094 -0.054069523 -0.018601095 -6.847508e-06 -0.008490763
0.0008735154 -0.04268799 0.00040024376 0.0024861952 -0.040568665 -0.031238422 -0.00016218227 -0.018621862
0.0026036846 -0.04430536 0.0015106492 0.002650622 -0.039991256 -0.042261764 -0.0005255959 -0.027281882
-0.0017559665 -0.067049414 -0.00077983865 0.00086437893 -0.05695145 -0.08626238 -0.0004120903 -0.0007463962
0.00077289407 -0.078552954 0.000261296 -0.00016633296 -0.071825095 -0.05767584 -0.0008768878 -0.0024642078
0.0034253248 -0.056015767 0.00081654335 0.0010229655 -0.057048395 -0.051596526 -0.00026601733 -0.0133989435
0.004887406 -0.044384934 0.0018876115 0.0052058706 -0.045412965 -0.007819005 -0.0004754333 -0.01620713
0.00058073725 -0.16184802 -0.0003653971 -0.0018141457 -0.16738018 -0.06287114 0.0003417018 0.19074276
0.00048013037 -0.067606725 -5.3442127e-05 0.002537665 -0.06747628 -0.023568856 -0.0007206507 0.008103702
0.0054877535 -0.057613257 0.0031428868 0.0076212906 -0.05370244 -0.018049577 -0.0007083286 -0.010831953
0.0031998176 -0.039002426 0.0009025708 0.0035835963 -0.041488595 -0.027946122 -0.00029405803 -0.0001492612
0.002822263 -0.061244402 0.00096962455 0.0027016723 -0.057551485 -0.031806994 -0.00037814598 -0.006632549
0.0011133121 -0.05751507 0.00014925314 0.0019905507 -0.053927675 -0.039877526 -7.471004e-06 -0.016060641
0.0030194293 -0.0483243 0.0008424889 0.0024536217 -0.04494832 -0.03474388 -0.0001335112 -0.013404771
-0.0022905339 0.1733541 -0.00043436355 -0.00649283 0.17774431 0.47799915 -0.0021746885 0.018859122
0.0030479594 -0.054966778 0.0008828934 0.0034135482 -0.059366 -0.037902102 -8.5851134e-05 0.010970649
0.0017077215 -0.044761565 0.00093636324 0.002192611 -0.045982882 -0.029540328 -0.00012140216 -0.01400042
0.0003227478 -0.053665824 -0.0004343251 0.0013687726 -0.05513716 -0.051965006 0.0004663204 -0.009634398
0.004634958 -0.06740461 0.002102385 0.0049999785 -0.0647355 -0.052404314 -0.0005207654 -0.006144438
-0.0016897558 -0.036781788 -0.0004076503 -0.00024147259 -0.040508993 -0.034340054 -0.00028069018 -0.0067152376
0.0019416014 -0.043194555 0.00090428157 0.0024290471 -0.04977571 -0.018173104 -0.00086063525 0.015304171
-0.004796396 0.08231301 -0.0006622974 -0.0029304016 0.09593477 0.08160599 -0.0003494264 -0.082933456
0.0015629133 -0.04640801 0.0013316608 0.0032300127 -0.04333178 -0.024512839 -0.00054432877 -0.01178074
0.0021430575 -0.043567993 0.0010014799 0.0026460881 -0.03874233 -0.009027592 -5.8393183e-05 -0.017567316
